…
      ndata_schemes={'protvec': Scheme(shape=(300,), dtype=torch.float32), 'biovec': Scheme(shape=(1024,), dtype=torch.float32), 'alphafold': Scheme(shape=(384,), dtype=torch.float32), 'esm': Scheme(shape=(1280,), dtype=torch.float32), 'concatenated': Scheme(shape=(2988,), dtype=torch.float32)}
      edata_schemes={'weight': Scheme(shape=(), dtype=torch.float32)})
Graph and protein mapping loaded successfully!
Number of nodes in graph: 21435
Data Loading is completed
Total Number of Edges:  10275677
Train Number of Edges:  7192975
Valid Number of Edges:  2055135
Test Number of Edges:  1027567
Train graph node types: ['_N']
Train graph edge types: ['_E']
Graph Splitting is completed
For Feature: concatenated ; flag 1.10d GIN Model
=================================
flag 1.10b gin Model:
 GIN(
  (layers): ModuleList(
    (0): GINConv(
      (apply_func): Sequential(
        (0): Linear(in_features=2988, out_features=128, bias=True)
        (1): ReLU()
        (2): Linear(in_features=128, out_features=160, bias=True)
      )
    )
    (1): GINConv(
      (apply_func): Sequential(
        (0): Linear(in_features=160, out_features=128, bias=True)
        (1): ReLU()
        (2): Linear(in_features=128, out_features=160, bias=True)
      )
    )
    (2): GINConv(
      (apply_func): Sequential(
        (0): Linear(in_features=160, out_features=128, bias=True)
        (1): ReLU()
        (2): Linear(in_features=128, out_features=160, bias=True)
      )
    )
    (3): GINConv(
      (apply_func): Sequential(
        (0): Linear(in_features=160, out_features=128, bias=True)
        (1): ReLU()
        (2): Linear(in_features=128, out_features=160, bias=True)
      )
    )
  )
  (predictor): Sequential(
    (0): Linear(in_features=160, out_features=80, bias=True)
    (1): ReLU()
    (2): Linear(in_features=80, out_features=1, bias=True)
  )
)
Loading saved checkpoints..

#---Original Test Evaluation---#
=== === flag1.11a performance_metrics === ===
Threshold: 650.34625
True Positive: 0.1669170964034462
False Negative: 0.3330829035965538
True Negative: 0.4198242061101612
False Positive: 0.08017579388983881
confusion_matrix: [[0.41982421 0.08017579]
 [0.3330829  0.1669171 ]]
J   = 0.1734826050272149
…
