…
      ndata_schemes={'protvec': Scheme(shape=(300,), dtype=torch.float32), 'biovec': Scheme(shape=(1024,), dtype=torch.float32), 'alphafold': Scheme(shape=(384,), dtype=torch.float32), 'esm': Scheme(shape=(1280,), dtype=torch.float32), 'concatenated': Scheme(shape=(684,), dtype=torch.float32)}
      edata_schemes={'weight': Scheme(shape=(), dtype=torch.float32)})
Graph and protein mapping loaded successfully!
Number of nodes in graph: 21435
Data Loading is completed
Total Number of Edges:  10275677
Train Number of Edges:  7192975
Valid Number of Edges:  2055135
Test Number of Edges:  1027567
Graph Splitting is completed
For Feature: concatenated ; flag 1.10a Sage Model
=================================
flag 1.10b Sage Model:
 SAGE(
  (layers): ModuleList(
    (0): SAGEConv(
      (feat_drop): Dropout(p=0.0, inplace=False)
      (fc_neigh): Linear(in_features=684, out_features=160, bias=False)
      (fc_self): Linear(in_features=684, out_features=160, bias=True)
    )
    (1): SAGEConv(
      (feat_drop): Dropout(p=0.0, inplace=False)
      (fc_neigh): Linear(in_features=160, out_features=160, bias=False)
      (fc_self): Linear(in_features=160, out_features=160, bias=True)
    )
    (2): SAGEConv(
      (feat_drop): Dropout(p=0.0, inplace=False)
      (fc_neigh): Linear(in_features=160, out_features=160, bias=False)
      (fc_self): Linear(in_features=160, out_features=160, bias=True)
    )
  )
  (predictor): Sequential(
    (0): Linear(in_features=160, out_features=160, bias=True)
    (1): ReLU()
    (2): Linear(in_features=160, out_features=160, bias=True)
    (3): ReLU()
    (4): Linear(in_features=160, out_features=1, bias=True)
  )
  (dropout): Dropout(p=0.2, inplace=False)
)
Epoch: 00 |  Iteration: 00000 | Loss: 0.6931 | Training Accuracy: 50.7812 | AUC Score: 0.4711
Epoch: 00 |  Iteration: 04000 | Loss: 0.6682 | Training Accuracy: 59.1797 | AUC Score: 0.6193
Epoch: 00 |  Iteration: 08000 | Loss: 0.6616 | Training Accuracy: 59.0820 | AUC Score: 0.6412
Epoch: 00 |  Iteration: 12000 | Loss: 0.6583 | Training Accuracy: 62.2070 | AUC Score: 0.6587
…
False Positive: 0.1796457068006271
confusion_matrix: [[0.32035429 0.17964571]
 [0.14053877 0.35946123]]
J   = 0.35963105082199
MCC = 0.3607361289994145
AUC = 0.7509262682559041
Accuracy using deepdrug method:  = 67.9816%
Precision = 0.6668
Recall = 0.7189
F1 Score = 0.6919
=== === === ===


Epoch: 19 | Final Performance: 00000 | Loss: 0.0000 | Testing Accuracy: 67.9816 | AUC Score: 0.7509


=================================
For Feature: concatenated ; flag 1.10d GIN Model
=================================
flag 1.10b gin Model:
 GIN(
  (layers): ModuleList(
    (0): GINConv(
      (apply_func): Sequential(
        (0): Linear(in_features=684, out_features=128, bias=True)
        (1): ReLU()
        (2): Linear(in_features=128, out_features=160, bias=True)
      )
    )
    (1): GINConv(
      (apply_func): Sequential(
        (0): Linear(in_features=160, out_features=128, bias=True)
        (1): ReLU()
        (2): Linear(in_features=128, out_features=160, bias=True)
      )
    )
    (2): GINConv(
      (apply_func): Sequential(
        (0): Linear(in_features=160, out_features=128, bias=True)
        (1): ReLU()
        (2): Linear(in_features=128, out_features=160, bias=True)
      )
    )
    (3): GINConv(
      (apply_func): Sequential(
        (0): Linear(in_features=160, out_features=128, bias=True)
        (1): ReLU()
        (2): Linear(in_features=128, out_features=160, bias=True)
      )
    )
  )
  (predictor): Sequential(
    (0): Linear(in_features=160, out_features=80, bias=True)
    (1): ReLU()
    (2): Linear(in_features=80, out_features=1, bias=True)
  )
)
Epoch: 00 |  Iteration: 00000 | Loss: 0.6931 | Training Accuracy: 53.1250 | AUC Score: 0.5145
Epoch: 00 |  Iteration: 04000 | Loss: 0.6702 | Training Accuracy: 56.7383 | AUC Score: 0.5689
Epoch: 00 |  Iteration: 08000 | Loss: 0.6605 | Training Accuracy: 58.4961 | AUC Score: 0.6058
Epoch: 00 |  Iteration: 12000 | Loss: 0.6562 | Training Accuracy: 58.1055 | AUC Score: 0.6044
…
True Negative: 0.4066664266174371
False Positive: 0.09333357338256289
confusion_matrix: [[0.40666643 0.09333357]
 [0.30832491 0.19167509]]
J   = 0.19668303867290415
MCC = 0.21784996371170862
AUC = 0.5437334854771002
Accuracy using deepdrug method:  = 59.8342%
Precision = 0.6725
Recall = 0.3834
F1 Score = 0.4883
=== === === ===


Epoch: 19 | Final Performance: 00000 | Loss: 0.0000 | Testing Accuracy: 59.8342 | AUC Score: 0.5437


=================================
For Feature: concatenated ; flag 1.10b GAT Model
=================================
flag 1.10b gat Model:
 GAT(
  (layers): ModuleList(
    (0): GATConv(
      (fc): Linear(in_features=684, out_features=4096, bias=False)
      (feat_drop): Dropout(p=0.0, inplace=False)
      (attn_drop): Dropout(p=0.0, inplace=False)
      (leaky_relu): LeakyReLU(negative_slope=0.2)
    )
    (1): GATConv(
      (fc): Linear(in_features=4096, out_features=2048, bias=False)
      (feat_drop): Dropout(p=0.0, inplace=False)
      (attn_drop): Dropout(p=0.0, inplace=False)
      (leaky_relu): LeakyReLU(negative_slope=0.2)
    )
    (2): GATConv(
      (fc): Linear(in_features=2048, out_features=160, bias=False)
      (feat_drop): Dropout(p=0.0, inplace=False)
      (attn_drop): Dropout(p=0.0, inplace=False)
      (leaky_relu): LeakyReLU(negative_slope=0.2)
    )
  )
  (predictor): Sequential(
    (0): Linear(in_features=160, out_features=80, bias=True)
    (1): LeakyReLU(negative_slope=0.2)
    (2): Linear(in_features=80, out_features=40, bias=True)
    (3): LeakyReLU(negative_slope=0.2)
    (4): Linear(in_features=40, out_features=1, bias=True)
  )
  (dropout): Dropout(p=0.2, inplace=False)
)
Epoch: 00 |  Iteration: 00000 | Loss: 0.6944 | Training Accuracy: 52.7344 | AUC Score: 0.5045
Epoch: 00 |  Iteration: 04000 | Loss: 0.6902 | Training Accuracy: 53.9062 | AUC Score: 0.5404
Epoch: 00 |  Iteration: 08000 | Loss: 0.6833 | Training Accuracy: 55.1758 | AUC Score: 0.5523
Epoch: 00 |  Iteration: 12000 | Loss: 0.6794 | Training Accuracy: 56.6406 | AUC Score: 0.5767
…
