…
      ndata_schemes={'protvec': Scheme(shape=(300,), dtype=torch.float32), 'biovec': Scheme(shape=(1024,), dtype=torch.float32), 'alphafold': Scheme(shape=(384,), dtype=torch.float32), 'esm': Scheme(shape=(1280,), dtype=torch.float32), 'concatenated': Scheme(shape=(2988,), dtype=torch.float32)}
      edata_schemes={'weight': Scheme(shape=(), dtype=torch.float32)})
Graph and protein mapping loaded successfully!
Number of nodes in graph: 21435
Data Loading is completed
Total Number of Edges:  10275677
Train Number of Edges:  7192975
Valid Number of Edges:  2055135
Test Number of Edges:  1027567
Graph Splitting is completed
For Feature: concatenated ; flag 1.10a Sage Model
=================================
flag 1.10b Sage Model:
 SAGE(
  (layers): ModuleList(
    (0): SAGEConv(
      (feat_drop): Dropout(p=0.0, inplace=False)
      (fc_neigh): Linear(in_features=2988, out_features=160, bias=False)
      (fc_self): Linear(in_features=2988, out_features=160, bias=True)
    )
    (1): SAGEConv(
      (feat_drop): Dropout(p=0.0, inplace=False)
      (fc_neigh): Linear(in_features=160, out_features=160, bias=False)
      (fc_self): Linear(in_features=160, out_features=160, bias=True)
    )
    (2): SAGEConv(
      (feat_drop): Dropout(p=0.0, inplace=False)
      (fc_neigh): Linear(in_features=160, out_features=160, bias=False)
      (fc_self): Linear(in_features=160, out_features=160, bias=True)
    )
  )
  (predictor): Sequential(
    (0): Linear(in_features=160, out_features=160, bias=True)
    (1): ReLU()
    (2): Linear(in_features=160, out_features=160, bias=True)
    (3): ReLU()
    (4): Linear(in_features=160, out_features=1, bias=True)
  )
  (dropout): Dropout(p=0.2, inplace=False)
)
Epoch: 00 |  Iteration: 00000 | Loss: 0.6932 | Training Accuracy: 53.1250 | AUC Score: 0.5191
Epoch: 00 |  Iteration: 04000 | Loss: 0.5314 | Training Accuracy: 76.8555 | AUC Score: 0.8364
Epoch: 00 |  Iteration: 08000 | Loss: 0.5183 | Training Accuracy: 76.7578 | AUC Score: 0.8547
Epoch: 00 |  Iteration: 12000 | Loss: 0.5113 | Training Accuracy: 74.6094 | AUC Score: 0.8266
…
True Negative: 0.4002814415021113
False Positive: 0.0997185584978887
confusion_matrix: [[0.40028144 0.09971856]
 [0.10942255 0.39057745]]
J   = 0.5817177857988822
MCC = 0.5818273744896217
AUC = 0.8738720073751429
Accuracy using deepdrug method:  = 79.0859%
Precision = 0.7966
Recall = 0.7812
F1 Score = 0.7888
=== === === ===


Epoch: 19 | Final Performance: 00000 | Loss: 0.0000 | Testing Accuracy: 79.0859 | AUC Score: 0.8739


=================================
For Feature: concatenated ; flag 1.10b GAT Model
=================================
flag 1.10b gat Model:
 GAT(
  (layers): ModuleList(
    (0): GATConv(
      (fc): Linear(in_features=2988, out_features=4096, bias=False)
      (feat_drop): Dropout(p=0.0, inplace=False)
      (attn_drop): Dropout(p=0.0, inplace=False)
      (leaky_relu): LeakyReLU(negative_slope=0.2)
    )
    (1): GATConv(
      (fc): Linear(in_features=4096, out_features=2048, bias=False)
      (feat_drop): Dropout(p=0.0, inplace=False)
      (attn_drop): Dropout(p=0.0, inplace=False)
      (leaky_relu): LeakyReLU(negative_slope=0.2)
    )
    (2): GATConv(
      (fc): Linear(in_features=2048, out_features=160, bias=False)
      (feat_drop): Dropout(p=0.0, inplace=False)
      (attn_drop): Dropout(p=0.0, inplace=False)
      (leaky_relu): LeakyReLU(negative_slope=0.2)
    )
  )
  (predictor): Sequential(
    (0): Linear(in_features=160, out_features=80, bias=True)
    (1): LeakyReLU(negative_slope=0.2)
    (2): Linear(in_features=80, out_features=40, bias=True)
    (3): LeakyReLU(negative_slope=0.2)
    (4): Linear(in_features=40, out_features=1, bias=True)
  )
  (dropout): Dropout(p=0.2, inplace=False)
)
Epoch: 00 |  Iteration: 00000 | Loss: 0.6957 | Training Accuracy: 49.1211 | AUC Score: 0.4905
Epoch: 00 |  Iteration: 04000 | Loss: 0.5927 | Training Accuracy: 71.3867 | AUC Score: 0.7867
Epoch: 00 |  Iteration: 08000 | Loss: 0.5731 | Training Accuracy: 71.0938 | AUC Score: 0.7790
Epoch: 00 |  Iteration: 12000 | Loss: 0.5644 | Training Accuracy: 72.2656 | AUC Score: 0.7995
…
False Positive: 0.21251266340783617
confusion_matrix: [[0.28748734 0.21251266]
 [0.16734043 0.33265957]]
J   = 0.240293820256976
MCC = 0.24128051852151008
AUC = 0.6799972173232459
Accuracy using deepdrug method:  = 62.0147%
Precision = 0.6102
Recall = 0.6653
F1 Score = 0.6366
=== === === ===


Epoch: 19 | Final Performance: 00000 | Loss: 0.0000 | Testing Accuracy: 62.0147 | AUC Score: 0.6800


=================================
For Feature: concatenated ; flag 1.10d GIN Model
=================================
flag 1.10b gin Model:
 GIN(
  (layers): ModuleList(
    (0): GINConv(
      (apply_func): Sequential(
        (0): Linear(in_features=2988, out_features=128, bias=True)
        (1): ReLU()
        (2): Linear(in_features=128, out_features=160, bias=True)
      )
    )
    (1): GINConv(
      (apply_func): Sequential(
        (0): Linear(in_features=160, out_features=128, bias=True)
        (1): ReLU()
        (2): Linear(in_features=128, out_features=160, bias=True)
      )
    )
    (2): GINConv(
      (apply_func): Sequential(
        (0): Linear(in_features=160, out_features=128, bias=True)
        (1): ReLU()
        (2): Linear(in_features=128, out_features=160, bias=True)
      )
    )
    (3): GINConv(
      (apply_func): Sequential(
        (0): Linear(in_features=160, out_features=128, bias=True)
        (1): ReLU()
        (2): Linear(in_features=128, out_features=160, bias=True)
      )
    )
  )
  (predictor): Sequential(
    (0): Linear(in_features=160, out_features=80, bias=True)
    (1): ReLU()
    (2): Linear(in_features=80, out_features=1, bias=True)
  )
)
Epoch: 00 |  Iteration: 00000 | Loss: 0.6932 | Training Accuracy: 50.0000 | AUC Score: 0.4303
Epoch: 00 |  Iteration: 04000 | Loss: 0.6146 | Training Accuracy: 64.5508 | AUC Score: 0.7038
Epoch: 00 |  Iteration: 08000 | Loss: 0.5995 | Training Accuracy: 68.5547 | AUC Score: 0.7560
Epoch: 00 |  Iteration: 12000 | Loss: 0.5907 | Training Accuracy: 66.5039 | AUC Score: 0.7370
…
