…
      ndata_schemes={'protvec': Scheme(shape=(300,), dtype=torch.float32), 'biovec': Scheme(shape=(1024,), dtype=torch.float32), 'alphafold': Scheme(shape=(384,), dtype=torch.float32), 'esm': Scheme(shape=(1280,), dtype=torch.float32), 'concatenated': Scheme(shape=(2688,), dtype=torch.float32)}
      edata_schemes={'weight': Scheme(shape=(), dtype=torch.float32)})
Graph and protein mapping loaded successfully!
Number of nodes in graph: 21435
Data Loading is completed
Total Number of Edges:  10275677
Train Number of Edges:  7192975
Valid Number of Edges:  2055135
Test Number of Edges:  1027567
Graph Splitting is completed
For Feature: concatenated ; flag 1.10a Sage Model
=================================
flag 1.10b Sage Model:
 SAGE(
  (layers): ModuleList(
    (0): SAGEConv(
      (feat_drop): Dropout(p=0.0, inplace=False)
      (fc_neigh): Linear(in_features=2688, out_features=160, bias=False)
      (fc_self): Linear(in_features=2688, out_features=160, bias=True)
    )
    (1): SAGEConv(
      (feat_drop): Dropout(p=0.0, inplace=False)
      (fc_neigh): Linear(in_features=160, out_features=160, bias=False)
      (fc_self): Linear(in_features=160, out_features=160, bias=True)
    )
    (2): SAGEConv(
      (feat_drop): Dropout(p=0.0, inplace=False)
      (fc_neigh): Linear(in_features=160, out_features=160, bias=False)
      (fc_self): Linear(in_features=160, out_features=160, bias=True)
    )
  )
  (predictor): Sequential(
    (0): Linear(in_features=160, out_features=160, bias=True)
    (1): ReLU()
    (2): Linear(in_features=160, out_features=160, bias=True)
    (3): ReLU()
    (4): Linear(in_features=160, out_features=1, bias=True)
  )
  (dropout): Dropout(p=0.2, inplace=False)
)
Epoch: 00 |  Iteration: 00000 | Loss: 0.6938 | Training Accuracy: 50.0977 | AUC Score: 0.4764
Epoch: 00 |  Iteration: 04000 | Loss: 0.6354 | Training Accuracy: 70.2148 | AUC Score: 0.7684
Epoch: 00 |  Iteration: 08000 | Loss: 0.6095 | Training Accuracy: 70.2148 | AUC Score: 0.7655
Epoch: 00 |  Iteration: 12000 | Loss: 0.5970 | Training Accuracy: 69.3359 | AUC Score: 0.7635
…
False Positive: 0.1255416921718973
confusion_matrix: [[0.37445831 0.12554169]
 [0.14096161 0.35903839]]
J   = 0.46699339313154287
MCC = 0.46721562935519706
AUC = 0.8128998660290556
Accuracy using deepdrug method:  = 73.3497%
Precision = 0.7409
Recall = 0.7181
F1 Score = 0.7293
=== === === ===


Epoch: 19 | Final Performance: 00000 | Loss: 0.0000 | Testing Accuracy: 73.3497 | AUC Score: 0.8129


=================================
For Feature: concatenated ; flag 1.10d GIN Model
=================================
flag 1.10b gin Model:
 GIN(
  (layers): ModuleList(
    (0): GINConv(
      (apply_func): Sequential(
        (0): Linear(in_features=2688, out_features=128, bias=True)
        (1): ReLU()
        (2): Linear(in_features=128, out_features=160, bias=True)
      )
    )
    (1): GINConv(
      (apply_func): Sequential(
        (0): Linear(in_features=160, out_features=128, bias=True)
        (1): ReLU()
        (2): Linear(in_features=128, out_features=160, bias=True)
      )
    )
    (2): GINConv(
      (apply_func): Sequential(
        (0): Linear(in_features=160, out_features=128, bias=True)
        (1): ReLU()
        (2): Linear(in_features=128, out_features=160, bias=True)
      )
    )
    (3): GINConv(
      (apply_func): Sequential(
        (0): Linear(in_features=160, out_features=128, bias=True)
        (1): ReLU()
        (2): Linear(in_features=128, out_features=160, bias=True)
      )
    )
  )
  (predictor): Sequential(
    (0): Linear(in_features=160, out_features=80, bias=True)
    (1): ReLU()
    (2): Linear(in_features=80, out_features=1, bias=True)
  )
)
Epoch: 00 |  Iteration: 00000 | Loss: 0.6933 | Training Accuracy: 57.9102 | AUC Score: 0.5736
Epoch: 00 |  Iteration: 04000 | Loss: 0.6563 | Training Accuracy: 63.8672 | AUC Score: 0.6792
Epoch: 00 |  Iteration: 08000 | Loss: 0.6397 | Training Accuracy: 65.3320 | AUC Score: 0.7038
Epoch: 00 |  Iteration: 12000 | Loss: 0.6324 | Training Accuracy: 63.6719 | AUC Score: 0.6891
…
True Negative: 0.3505450252878888
False Positive: 0.14945497471211122
confusion_matrix: [[0.35054503 0.14945497]
 [0.21962947 0.28037053]]
J   = 0.26183110201086635
MCC = 0.26444858903361385
AUC = 0.6770887741793387
Accuracy using deepdrug method:  = 63.0916%
Precision = 0.6523
Recall = 0.5607
F1 Score = 0.6031
=== === === ===


Epoch: 19 | Final Performance: 00000 | Loss: 0.0000 | Testing Accuracy: 63.0916 | AUC Score: 0.6771


=================================
For Feature: concatenated ; flag 1.10b GAT Model
=================================
flag 1.10b gat Model:
 GAT(
  (layers): ModuleList(
    (0): GATConv(
      (fc): Linear(in_features=2688, out_features=4096, bias=False)
      (feat_drop): Dropout(p=0.0, inplace=False)
      (attn_drop): Dropout(p=0.0, inplace=False)
      (leaky_relu): LeakyReLU(negative_slope=0.2)
    )
    (1): GATConv(
      (fc): Linear(in_features=4096, out_features=2048, bias=False)
      (feat_drop): Dropout(p=0.0, inplace=False)
      (attn_drop): Dropout(p=0.0, inplace=False)
      (leaky_relu): LeakyReLU(negative_slope=0.2)
    )
    (2): GATConv(
      (fc): Linear(in_features=2048, out_features=160, bias=False)
      (feat_drop): Dropout(p=0.0, inplace=False)
      (attn_drop): Dropout(p=0.0, inplace=False)
      (leaky_relu): LeakyReLU(negative_slope=0.2)
    )
  )
  (predictor): Sequential(
    (0): Linear(in_features=160, out_features=80, bias=True)
    (1): LeakyReLU(negative_slope=0.2)
    (2): Linear(in_features=80, out_features=40, bias=True)
    (3): LeakyReLU(negative_slope=0.2)
    (4): Linear(in_features=40, out_features=1, bias=True)
  )
  (dropout): Dropout(p=0.2, inplace=False)
)
Epoch: 00 |  Iteration: 00000 | Loss: 0.6935 | Training Accuracy: 48.9258 | AUC Score: 0.4848
Epoch: 00 |  Iteration: 04000 | Loss: 0.6833 | Training Accuracy: 62.8906 | AUC Score: 0.6646
Epoch: 00 |  Iteration: 08000 | Loss: 0.6635 | Training Accuracy: 65.8203 | AUC Score: 0.7223
Epoch: 00 |  Iteration: 12000 | Loss: 0.6480 | Training Accuracy: 66.1133 | AUC Score: 0.7084
…
