…
False Positive: 0.11678849165066608
confusion_matrix: [[0.38321151 0.11678849]
 [0.14546302 0.35453698]]
J   = 0.4754969748931215
MCC = 0.47628084343180294
AUC = 0.8174215807576302
Accuracy using deepdrug method:  = 73.7748%
Precision = 0.7522
Recall = 0.7091
F1 Score = 0.7300
=== === === ===


Epoch: 19 | Final Performance: 00000 | Loss: 0.0000 | Testing Accuracy: 73.7748 | AUC Score: 0.8174


=================================
For Feature: concatenated ; flag 1.10d GIN Model
=================================
flag 1.10b gin Model:
 GIN(
  (layers): ModuleList(
    (0): GINConv(
      (apply_func): Sequential(
        (0): Linear(in_features=2604, out_features=128, bias=True)
        (1): ReLU()
        (2): Linear(in_features=128, out_features=160, bias=True)
      )
    )
    (1): GINConv(
      (apply_func): Sequential(
        (0): Linear(in_features=160, out_features=128, bias=True)
        (1): ReLU()
        (2): Linear(in_features=128, out_features=160, bias=True)
      )
    )
    (2): GINConv(
      (apply_func): Sequential(
        (0): Linear(in_features=160, out_features=128, bias=True)
        (1): ReLU()
        (2): Linear(in_features=128, out_features=160, bias=True)
      )
    )
    (3): GINConv(
      (apply_func): Sequential(
        (0): Linear(in_features=160, out_features=128, bias=True)
        (1): ReLU()
        (2): Linear(in_features=128, out_features=160, bias=True)
      )
    )
  )
  (predictor): Sequential(
    (0): Linear(in_features=160, out_features=80, bias=True)
    (1): ReLU()
    (2): Linear(in_features=80, out_features=1, bias=True)
  )
)
Epoch: 00 |  Iteration: 00000 | Loss: 0.6939 | Training Accuracy: 52.0508 | AUC Score: 0.5079
Epoch: 00 |  Iteration: 04000 | Loss: 0.6313 | Training Accuracy: 67.2852 | AUC Score: 0.7275
Epoch: 00 |  Iteration: 08000 | Loss: 0.6159 | Training Accuracy: 68.4570 | AUC Score: 0.7416
Epoch: 00 |  Iteration: 12000 | Loss: 0.6059 | Training Accuracy: 68.2617 | AUC Score: 0.7449
…
