…
      edata_schemes={'weight': Scheme(shape=(), dtype=torch.float32), '_ID': Scheme(shape=(), dtype=torch.int64)})
Number of nodes in subgraph: 1000
Number of edges in subgraph: 22756
Graph and protein mapping loaded successfully!
Number of nodes in graph: 1000
Data Loading is completed
Total Number of Edges:  22638
Train Number of Edges:  15848
Valid Number of Edges:  4527
Test Number of Edges:  2263
Graph Splitting is completed
For Feature: concatenated ; flag 1.10a Sage Model
=================================
flag 1.10b Sage Model:
 SAGE(
  (layers): ModuleList(
    (0): SAGEConv(
      (feat_drop): Dropout(p=0.0, inplace=False)
      (fc_neigh): Linear(in_features=2988, out_features=160, bias=False)
      (fc_self): Linear(in_features=2988, out_features=160, bias=True)
    )
    (1): SAGEConv(
      (feat_drop): Dropout(p=0.0, inplace=False)
      (fc_neigh): Linear(in_features=160, out_features=160, bias=False)
      (fc_self): Linear(in_features=160, out_features=160, bias=True)
    )
    (2): SAGEConv(
      (feat_drop): Dropout(p=0.0, inplace=False)
      (fc_neigh): Linear(in_features=160, out_features=160, bias=False)
      (fc_self): Linear(in_features=160, out_features=160, bias=True)
    )
  )
  (predictor): Sequential(
    (0): Linear(in_features=160, out_features=160, bias=True)
    (1): ReLU()
    (2): Linear(in_features=160, out_features=160, bias=True)
    (3): ReLU()
    (4): Linear(in_features=160, out_features=1, bias=True)
  )
  (dropout): Dropout(p=0.2, inplace=False)
)
Epoch: 00 |  Iteration: 00000 | Loss: 0.6932 | Training Accuracy: 50.6836 | AUC Score: 0.4564
Epoch: 00 |  Iteration: 00000 | Loss: 0.0000 | Validation Accuracy: 61.2547 | AUC Score: 0.6567
Validation accuracy improved to 61.2547, saving model...
Epoch: 01 |  Iteration: 00000 | Loss: 0.6922 | Training Accuracy: 58.6914 | AUC Score: 0.6122
…
False Positive: 0.2845779938135219
confusion_matrix: [[0.21542201 0.28457799]
 [0.04573575 0.45426425]]
J   = 0.3393725143614672
MCC = 0.38629523168603164
AUC = 0.7300494281676704
Accuracy using deepdrug method:  = 66.9686%
Precision = 0.6148
Recall = 0.9085
F1 Score = 0.7334
=== === === ===


Epoch: 19 | Final Performance: 00000 | Loss: 0.0000 | Testing Accuracy: 66.9686 | AUC Score: 0.7300


=================================
For Feature: concatenated ; flag 1.10d GIN Model
=================================
flag 1.10b gin Model:
 GIN(
  (layers): ModuleList(
    (0): GINConv(
      (apply_func): Sequential(
        (0): Linear(in_features=2988, out_features=128, bias=True)
        (1): ReLU()
        (2): Linear(in_features=128, out_features=160, bias=True)
      )
    )
    (1): GINConv(
      (apply_func): Sequential(
        (0): Linear(in_features=160, out_features=128, bias=True)
        (1): ReLU()
        (2): Linear(in_features=128, out_features=160, bias=True)
      )
    )
    (2): GINConv(
      (apply_func): Sequential(
        (0): Linear(in_features=160, out_features=128, bias=True)
        (1): ReLU()
        (2): Linear(in_features=128, out_features=160, bias=True)
      )
    )
    (3): GINConv(
      (apply_func): Sequential(
        (0): Linear(in_features=160, out_features=128, bias=True)
        (1): ReLU()
        (2): Linear(in_features=128, out_features=160, bias=True)
      )
    )
  )
  (predictor): Sequential(
    (0): Linear(in_features=160, out_features=80, bias=True)
    (1): ReLU()
    (2): Linear(in_features=80, out_features=1, bias=True)
  )
)
Epoch: 00 |  Iteration: 00000 | Loss: 0.6932 | Training Accuracy: 50.0000 | AUC Score: 0.4223
Epoch: 00 |  Iteration: 00000 | Loss: 0.0000 | Validation Accuracy: 63.7950 | AUC Score: 0.6783
Validation accuracy improved to 63.7950, saving model...
Epoch: 01 |  Iteration: 00000 | Loss: 0.6914 | Training Accuracy: 61.5234 | AUC Score: 0.6129
Epoch: 01 |  Iteration: 00000 | Loss: 0.0000 | Validation Accuracy: 65.4076 | AUC Score: 0.7054
…
True Negative: 0.3300927971718957
False Positive: 0.1699072028281043
confusion_matrix: [[0.3300928  0.1699072 ]
 [0.14339373 0.35660627]]
J   = 0.37339814405656213
MCC = 0.37392422504414263
AUC = 0.7549658095641835
Accuracy using deepdrug method:  = 68.6699%
Precision = 0.6773
Recall = 0.7132
F1 Score = 0.6948
=== === === ===


Epoch: 19 | Final Performance: 00000 | Loss: 0.0000 | Testing Accuracy: 68.6699 | AUC Score: 0.7550


=================================
For Feature: concatenated ; flag 1.10b GAT Model
=================================
flag 1.10b gat Model:
 GAT(
  (layers): ModuleList(
    (0): GATConv(
      (fc): Linear(in_features=2988, out_features=4096, bias=False)
      (feat_drop): Dropout(p=0.0, inplace=False)
      (attn_drop): Dropout(p=0.0, inplace=False)
      (leaky_relu): LeakyReLU(negative_slope=0.2)
    )
    (1): GATConv(
      (fc): Linear(in_features=4096, out_features=2048, bias=False)
      (feat_drop): Dropout(p=0.0, inplace=False)
      (attn_drop): Dropout(p=0.0, inplace=False)
      (leaky_relu): LeakyReLU(negative_slope=0.2)
    )
    (2): GATConv(
      (fc): Linear(in_features=2048, out_features=160, bias=False)
      (feat_drop): Dropout(p=0.0, inplace=False)
      (attn_drop): Dropout(p=0.0, inplace=False)
      (leaky_relu): LeakyReLU(negative_slope=0.2)
    )
  )
  (predictor): Sequential(
    (0): Linear(in_features=160, out_features=80, bias=True)
    (1): LeakyReLU(negative_slope=0.2)
    (2): Linear(in_features=80, out_features=40, bias=True)
    (3): LeakyReLU(negative_slope=0.2)
    (4): Linear(in_features=40, out_features=1, bias=True)
  )
  (dropout): Dropout(p=0.2, inplace=False)
)
Epoch: 00 |  Iteration: 00000 | Loss: 0.6969 | Training Accuracy: 50.0000 | AUC Score: 0.3790
Epoch: 00 |  Iteration: 00000 | Loss: 0.0000 | Validation Accuracy: 62.0278 | AUC Score: 0.6291
Validation accuracy improved to 62.0278, saving model...
Epoch: 01 |  Iteration: 00000 | Loss: 0.6960 | Training Accuracy: 59.2773 | AUC Score: 0.6138
…
