…
      edata_schemes={'weight': Scheme(shape=(), dtype=torch.float32), '_ID': Scheme(shape=(), dtype=torch.int64)})
Number of nodes in subgraph: 1000
Number of edges in subgraph: 22756
Graph and protein mapping loaded successfully!
Number of nodes in graph: 1000
Data Loading is completed
Total Number of Edges:  22638
Train Number of Edges:  15848
Valid Number of Edges:  4527
Test Number of Edges:  2263
Graph Splitting is completed
For Feature: concatenated ; flag 1.10a Sage Model
=================================
flag 1.10b Sage Model:
 SAGE(
  (layers): ModuleList(
    (0): SAGEConv(
      (feat_drop): Dropout(p=0.0, inplace=False)
      (fc_neigh): Linear(in_features=2988, out_features=160, bias=False)
      (fc_self): Linear(in_features=2988, out_features=160, bias=True)
    )
    (1): SAGEConv(
      (feat_drop): Dropout(p=0.0, inplace=False)
      (fc_neigh): Linear(in_features=160, out_features=160, bias=False)
      (fc_self): Linear(in_features=160, out_features=160, bias=True)
    )
    (2): SAGEConv(
      (feat_drop): Dropout(p=0.0, inplace=False)
      (fc_neigh): Linear(in_features=160, out_features=160, bias=False)
      (fc_self): Linear(in_features=160, out_features=160, bias=True)
    )
  )
  (predictor): Sequential(
    (0): Linear(in_features=160, out_features=160, bias=True)
    (1): ReLU()
    (2): Linear(in_features=160, out_features=160, bias=True)
    (3): ReLU()
    (4): Linear(in_features=160, out_features=1, bias=True)
  )
  (dropout): Dropout(p=0.2, inplace=False)
)
Epoch: 00 |  Iteration: 00000 | Loss: 0.6932 | Training Accuracy: 51.4648 | AUC Score: 0.4542
Epoch: 00 |  Iteration: 00000 | Loss: 0.0000 | Validation Accuracy: 61.3541 | AUC Score: 0.6568
Validation accuracy improved to 61.3541, saving model...
Epoch: 01 |  Iteration: 00000 | Loss: 0.6922 | Training Accuracy: 57.9102 | AUC Score: 0.6111
…
True Negative: 0.29297392841361025
False Positive: 0.20702607158638975
confusion_matrix: [[0.29297393 0.20702607]
 [0.10141405 0.39858595]]
J   = 0.38311975254087494
MCC = 0.3919633578325384
AUC = 0.7495937939169749
Accuracy using deepdrug method:  = 69.1560%
Precision = 0.6582
Recall = 0.7972
F1 Score = 0.7210
=== === === ===


Epoch: 19 | Final Performance: 00000 | Loss: 0.0000 | Testing Accuracy: 69.1560 | AUC Score: 0.7496
=================================
For Feature: concatenated ; flag 1.10b GAT Model
=================================
flag 1.10b gat Model:
 GAT(
  (layers): ModuleList(
    (0): GATConv(
      (fc): Linear(in_features=2988, out_features=4096, bias=False)
      (feat_drop): Dropout(p=0.0, inplace=False)
      (attn_drop): Dropout(p=0.0, inplace=False)
      (leaky_relu): LeakyReLU(negative_slope=0.2)
    )
    (1): GATConv(
      (fc): Linear(in_features=4096, out_features=2048, bias=False)
      (feat_drop): Dropout(p=0.0, inplace=False)
      (attn_drop): Dropout(p=0.0, inplace=False)
      (leaky_relu): LeakyReLU(negative_slope=0.2)
    )
    (2): GATConv(
      (fc): Linear(in_features=2048, out_features=160, bias=False)
      (feat_drop): Dropout(p=0.0, inplace=False)
      (attn_drop): Dropout(p=0.0, inplace=False)
      (leaky_relu): LeakyReLU(negative_slope=0.2)
    )
  )
  (predictor): Sequential(
    (0): Linear(in_features=160, out_features=80, bias=True)
    (1): LeakyReLU(negative_slope=0.2)
    (2): Linear(in_features=80, out_features=40, bias=True)
    (3): LeakyReLU(negative_slope=0.2)
    (4): Linear(in_features=40, out_features=1, bias=True)
  )
  (dropout): Dropout(p=0.2, inplace=False)
)
Epoch: 00 |  Iteration: 00000 | Loss: 0.6969 | Training Accuracy: 50.0000 | AUC Score: 0.3981
Epoch: 00 |  Iteration: 00000 | Loss: 0.0000 | Validation Accuracy: 62.0168 | AUC Score: 0.6291
Validation accuracy improved to 62.0168, saving model...
Epoch: 01 |  Iteration: 00000 | Loss: 0.6960 | Training Accuracy: 60.2539 | AUC Score: 0.6233
…
False Positive: 0.25475033141847103
confusion_matrix: [[0.24524967 0.25475033]
 [0.07490057 0.42509943]]
J   = 0.34069818824569165
MCC = 0.3651374995439871
AUC = 0.7301878731203755
Accuracy using deepdrug method:  = 67.0349%
Precision = 0.6253
Recall = 0.8502
F1 Score = 0.7206
=== === === ===


Epoch: 19 | Final Performance: 00000 | Loss: 0.0000 | Testing Accuracy: 67.0349 | AUC Score: 0.7302
=================================
For Feature: concatenated ; flag 1.10d GIN Model
=================================
flag 1.10b gin Model:
 GIN(
  (layers): ModuleList(
    (0): GINConv(
      (apply_func): Sequential(
        (0): Linear(in_features=2988, out_features=128, bias=True)
        (1): ReLU()
        (2): Linear(in_features=128, out_features=160, bias=True)
      )
    )
    (1): GINConv(
      (apply_func): Sequential(
        (0): Linear(in_features=160, out_features=128, bias=True)
        (1): ReLU()
        (2): Linear(in_features=128, out_features=160, bias=True)
      )
    )
    (2): GINConv(
      (apply_func): Sequential(
        (0): Linear(in_features=160, out_features=128, bias=True)
        (1): ReLU()
        (2): Linear(in_features=128, out_features=160, bias=True)
      )
    )
    (3): GINConv(
      (apply_func): Sequential(
        (0): Linear(in_features=160, out_features=128, bias=True)
        (1): ReLU()
        (2): Linear(in_features=128, out_features=160, bias=True)
      )
    )
  )
  (predictor): Sequential(
    (0): Linear(in_features=160, out_features=80, bias=True)
    (1): ReLU()
    (2): Linear(in_features=80, out_features=1, bias=True)
  )
)
Epoch: 00 |  Iteration: 00000 | Loss: 0.6932 | Training Accuracy: 50.0000 | AUC Score: 0.4125
Epoch: 00 |  Iteration: 00000 | Loss: 0.0000 | Validation Accuracy: 63.8061 | AUC Score: 0.6783
Validation accuracy improved to 63.8061, saving model...
Epoch: 01 |  Iteration: 00000 | Loss: 0.6915 | Training Accuracy: 60.3516 | AUC Score: 0.6167
Epoch: 01 |  Iteration: 00000 | Loss: 0.0000 | Validation Accuracy: 65.3413 | AUC Score: 0.7032
…
