…
      ndata_schemes={'protvec': Scheme(shape=(300,), dtype=torch.float32), 'biovec': Scheme(shape=(1024,), dtype=torch.float32), 'alphafold': Scheme(shape=(384,), dtype=torch.float32), 'esm': Scheme(shape=(1280,), dtype=torch.float32), 'concatenated': Scheme(shape=(684,), dtype=torch.float32)}
      edata_schemes={'weight': Scheme(shape=(), dtype=torch.float32)})
Graph and protein mapping loaded successfully!
Number of nodes in graph: 21435
Data Loading is completed
Total Number of Edges:  10275677
Train Number of Edges:  7192975
Valid Number of Edges:  2055135
Test Number of Edges:  1027567
Graph Splitting is completed
For Feature: concatenated ; flag 1.10a Sage Model
=================================
flag 1.10b Sage Model:
 SAGE(
  (layers): ModuleList(
    (0): SAGEConv(
      (feat_drop): Dropout(p=0.0, inplace=False)
      (fc_neigh): Linear(in_features=684, out_features=160, bias=False)
      (fc_self): Linear(in_features=684, out_features=160, bias=True)
    )
    (1): SAGEConv(
      (feat_drop): Dropout(p=0.0, inplace=False)
      (fc_neigh): Linear(in_features=160, out_features=160, bias=False)
      (fc_self): Linear(in_features=160, out_features=160, bias=True)
    )
    (2): SAGEConv(
      (feat_drop): Dropout(p=0.0, inplace=False)
      (fc_neigh): Linear(in_features=160, out_features=160, bias=False)
      (fc_self): Linear(in_features=160, out_features=160, bias=True)
    )
  )
  (predictor): Sequential(
    (0): Linear(in_features=160, out_features=160, bias=True)
    (1): ReLU()
    (2): Linear(in_features=160, out_features=160, bias=True)
    (3): ReLU()
    (4): Linear(in_features=160, out_features=1, bias=True)
  )
  (dropout): Dropout(p=0.2, inplace=False)
)
Epoch: 00 |  Iteration: 00000 | Loss: 0.6932 | Training Accuracy: 52.1484 | AUC Score: 0.4962
Epoch: 00 |  Iteration: 04000 | Loss: 0.5971 | Training Accuracy: 69.9219 | AUC Score: 0.7714
Epoch: 00 |  Iteration: 08000 | Loss: 0.5783 | Training Accuracy: 71.2891 | AUC Score: 0.7812
Epoch: 00 |  Iteration: 12000 | Loss: 0.5684 | Training Accuracy: 71.0938 | AUC Score: 0.7870
…
False Positive: 0.1814942480636299
confusion_matrix: [[0.31850575 0.18149425]
 [0.14600848 0.35399152]]
J   = 0.34499453563611926
MCC = 0.3458666932419875
AUC = 0.7398055201647816
Accuracy using deepdrug method:  = 67.2497%
Precision = 0.6611
Recall = 0.7080
F1 Score = 0.6837
=== === === ===


Epoch: 19 | Final Performance: 00000 | Loss: 0.0000 | Testing Accuracy: 67.2497 | AUC Score: 0.7398


=================================
For Feature: concatenated ; flag 1.10d GIN Model
=================================
flag 1.10b gin Model:
 GIN(
  (layers): ModuleList(
    (0): GINConv(
      (apply_func): Sequential(
        (0): Linear(in_features=684, out_features=128, bias=True)
        (1): ReLU()
        (2): Linear(in_features=128, out_features=160, bias=True)
      )
    )
    (1): GINConv(
      (apply_func): Sequential(
        (0): Linear(in_features=160, out_features=128, bias=True)
        (1): ReLU()
        (2): Linear(in_features=128, out_features=160, bias=True)
      )
    )
    (2): GINConv(
      (apply_func): Sequential(
        (0): Linear(in_features=160, out_features=128, bias=True)
        (1): ReLU()
        (2): Linear(in_features=128, out_features=160, bias=True)
      )
    )
    (3): GINConv(
      (apply_func): Sequential(
        (0): Linear(in_features=160, out_features=128, bias=True)
        (1): ReLU()
        (2): Linear(in_features=128, out_features=160, bias=True)
      )
    )
  )
  (predictor): Sequential(
    (0): Linear(in_features=160, out_features=80, bias=True)
    (1): ReLU()
    (2): Linear(in_features=80, out_features=1, bias=True)
  )
)
Epoch: 00 |  Iteration: 00000 | Loss: 0.6931 | Training Accuracy: 52.4414 | AUC Score: 0.4846
Epoch: 00 |  Iteration: 04000 | Loss: 0.6544 | Training Accuracy: 55.9570 | AUC Score: 0.5551
Epoch: 00 |  Iteration: 08000 | Loss: 0.6503 | Training Accuracy: 58.6914 | AUC Score: 0.6256
Epoch: 00 |  Iteration: 12000 | Loss: 0.6473 | Training Accuracy: 59.4727 | AUC Score: 0.6217
…
True Negative: 0.4967865842324637
False Positive: 0.003213415767536326
confusion_matrix: [[0.49678658 0.00321342]
 [0.49132125 0.00867875]]
J   = 0.0109306741068953
MCC = 0.050417841797321616
AUC = 0.36081017762671685
Accuracy using deepdrug method:  = 50.5465%
Precision = 0.7298
Recall = 0.0174
F1 Score = 0.0339
=== === === ===


Epoch: 19 | Final Performance: 00000 | Loss: 0.0000 | Testing Accuracy: 50.5465 | AUC Score: 0.3608


=================================
For Feature: concatenated ; flag 1.10b GAT Model
=================================
flag 1.10b gat Model:
 GAT(
  (layers): ModuleList(
    (0): GATConv(
      (fc): Linear(in_features=684, out_features=4096, bias=False)
      (feat_drop): Dropout(p=0.0, inplace=False)
      (attn_drop): Dropout(p=0.0, inplace=False)
      (leaky_relu): LeakyReLU(negative_slope=0.2)
    )
    (1): GATConv(
      (fc): Linear(in_features=4096, out_features=2048, bias=False)
      (feat_drop): Dropout(p=0.0, inplace=False)
      (attn_drop): Dropout(p=0.0, inplace=False)
      (leaky_relu): LeakyReLU(negative_slope=0.2)
    )
    (2): GATConv(
      (fc): Linear(in_features=2048, out_features=160, bias=False)
      (feat_drop): Dropout(p=0.0, inplace=False)
      (attn_drop): Dropout(p=0.0, inplace=False)
      (leaky_relu): LeakyReLU(negative_slope=0.2)
    )
  )
  (predictor): Sequential(
    (0): Linear(in_features=160, out_features=80, bias=True)
    (1): LeakyReLU(negative_slope=0.2)
    (2): Linear(in_features=80, out_features=40, bias=True)
    (3): LeakyReLU(negative_slope=0.2)
    (4): Linear(in_features=40, out_features=1, bias=True)
  )
  (dropout): Dropout(p=0.2, inplace=False)
)
Epoch: 00 |  Iteration: 00000 | Loss: 0.6941 | Training Accuracy: 50.0977 | AUC Score: 0.4795
Epoch: 00 |  Iteration: 04000 | Loss: 0.6284 | Training Accuracy: 65.4297 | AUC Score: 0.7105
Epoch: 00 |  Iteration: 08000 | Loss: 0.6087 | Training Accuracy: 69.6289 | AUC Score: 0.7659
Epoch: 00 |  Iteration: 12000 | Loss: 0.5970 | Training Accuracy: 68.5547 | AUC Score: 0.7524
…
