…
      ndata_schemes={'protvec': Scheme(shape=(300,), dtype=torch.float32), 'biovec': Scheme(shape=(1024,), dtype=torch.float32), 'alphafold': Scheme(shape=(384,), dtype=torch.float32), 'esm': Scheme(shape=(1280,), dtype=torch.float32), 'concatenated': Scheme(shape=(1664,), dtype=torch.float32)}
      edata_schemes={'weight': Scheme(shape=(), dtype=torch.float32)})
Graph and protein mapping loaded successfully!
Number of nodes in graph: 21435
Data Loading is completed
Total Number of Edges:  10275677
Train Number of Edges:  7192975
Valid Number of Edges:  2055135
Test Number of Edges:  1027567
Graph Splitting is completed
For Feature: concatenated ; flag 1.10a Sage Model
=================================
flag 1.10b Sage Model:
 SAGE(
  (layers): ModuleList(
    (0): SAGEConv(
      (feat_drop): Dropout(p=0.0, inplace=False)
      (fc_neigh): Linear(in_features=1664, out_features=160, bias=False)
      (fc_self): Linear(in_features=1664, out_features=160, bias=True)
    )
    (1): SAGEConv(
      (feat_drop): Dropout(p=0.0, inplace=False)
      (fc_neigh): Linear(in_features=160, out_features=160, bias=False)
      (fc_self): Linear(in_features=160, out_features=160, bias=True)
    )
    (2): SAGEConv(
      (feat_drop): Dropout(p=0.0, inplace=False)
      (fc_neigh): Linear(in_features=160, out_features=160, bias=False)
      (fc_self): Linear(in_features=160, out_features=160, bias=True)
    )
  )
  (predictor): Sequential(
    (0): Linear(in_features=160, out_features=160, bias=True)
    (1): ReLU()
    (2): Linear(in_features=160, out_features=160, bias=True)
    (3): ReLU()
    (4): Linear(in_features=160, out_features=1, bias=True)
  )
  (dropout): Dropout(p=0.2, inplace=False)
)
Epoch: 00 |  Iteration: 00000 | Loss: 0.6940 | Training Accuracy: 51.3672 | AUC Score: 0.4995
Epoch: 00 |  Iteration: 04000 | Loss: 0.5941 | Training Accuracy: 70.4102 | AUC Score: 0.7697
Epoch: 00 |  Iteration: 08000 | Loss: 0.5743 | Training Accuracy: 74.7070 | AUC Score: 0.8223
Epoch: 00 |  Iteration: 12000 | Loss: 0.5631 | Training Accuracy: 73.3398 | AUC Score: 0.8012
…
True Negative: 0.3944647891573007
False Positive: 0.1055352108426993
confusion_matrix: [[0.39446479 0.10553521]
 [0.11240046 0.38759954]]
J   = 0.5641286650894783
MCC = 0.5641818491821476
AUC = 0.8651881091576404
Accuracy using deepdrug method:  = 78.2064%
Precision = 0.7860
Recall = 0.7752
F1 Score = 0.7806
=== === === ===


Epoch: 19 | Final Performance: 00000 | Loss: 0.0000 | Testing Accuracy: 78.2064 | AUC Score: 0.8652


=================================
For Feature: concatenated ; flag 1.10b GAT Model
=================================
flag 1.10b gat Model:
 GAT(
  (layers): ModuleList(
    (0): GATConv(
      (fc): Linear(in_features=1664, out_features=4096, bias=False)
      (feat_drop): Dropout(p=0.0, inplace=False)
      (attn_drop): Dropout(p=0.0, inplace=False)
      (leaky_relu): LeakyReLU(negative_slope=0.2)
    )
    (1): GATConv(
      (fc): Linear(in_features=4096, out_features=2048, bias=False)
      (feat_drop): Dropout(p=0.0, inplace=False)
      (attn_drop): Dropout(p=0.0, inplace=False)
      (leaky_relu): LeakyReLU(negative_slope=0.2)
    )
    (2): GATConv(
      (fc): Linear(in_features=2048, out_features=160, bias=False)
      (feat_drop): Dropout(p=0.0, inplace=False)
      (attn_drop): Dropout(p=0.0, inplace=False)
      (leaky_relu): LeakyReLU(negative_slope=0.2)
    )
  )
  (predictor): Sequential(
    (0): Linear(in_features=160, out_features=80, bias=True)
    (1): LeakyReLU(negative_slope=0.2)
    (2): Linear(in_features=80, out_features=40, bias=True)
    (3): LeakyReLU(negative_slope=0.2)
    (4): Linear(in_features=40, out_features=1, bias=True)
  )
  (dropout): Dropout(p=0.2, inplace=False)
)
Epoch: 00 |  Iteration: 00000 | Loss: 0.6948 | Training Accuracy: 52.7344 | AUC Score: 0.5013
Epoch: 00 |  Iteration: 04000 | Loss: 0.6490 | Training Accuracy: 59.3750 | AUC Score: 0.6331
Epoch: 00 |  Iteration: 08000 | Loss: 0.6331 | Training Accuracy: 65.8203 | AUC Score: 0.7285
Epoch: 00 |  Iteration: 12000 | Loss: 0.6218 | Training Accuracy: 69.4336 | AUC Score: 0.7667
…
False Positive: 0.2294205633306636
confusion_matrix: [[0.27057944 0.22942056]
 [0.16266239 0.33733761]]
J   = 0.21583410132867265
MCC = 0.217784006491238
AUC = 0.6614629134181862
Accuracy using deepdrug method:  = 60.7917%
Precision = 0.5952
Recall = 0.6747
F1 Score = 0.6325
=== === === ===


Epoch: 19 | Final Performance: 00000 | Loss: 0.0000 | Testing Accuracy: 60.7917 | AUC Score: 0.6615


=================================
For Feature: concatenated ; flag 1.10d GIN Model
=================================
flag 1.10b gin Model:
 GIN(
  (layers): ModuleList(
    (0): GINConv(
      (apply_func): Sequential(
        (0): Linear(in_features=1664, out_features=128, bias=True)
        (1): ReLU()
        (2): Linear(in_features=128, out_features=160, bias=True)
      )
    )
    (1): GINConv(
      (apply_func): Sequential(
        (0): Linear(in_features=160, out_features=128, bias=True)
        (1): ReLU()
        (2): Linear(in_features=128, out_features=160, bias=True)
      )
    )
    (2): GINConv(
      (apply_func): Sequential(
        (0): Linear(in_features=160, out_features=128, bias=True)
        (1): ReLU()
        (2): Linear(in_features=128, out_features=160, bias=True)
      )
    )
    (3): GINConv(
      (apply_func): Sequential(
        (0): Linear(in_features=160, out_features=128, bias=True)
        (1): ReLU()
        (2): Linear(in_features=128, out_features=160, bias=True)
      )
    )
  )
  (predictor): Sequential(
    (0): Linear(in_features=160, out_features=80, bias=True)
    (1): ReLU()
    (2): Linear(in_features=80, out_features=1, bias=True)
  )
)
Epoch: 00 |  Iteration: 00000 | Loss: 0.6939 | Training Accuracy: 56.7383 | AUC Score: 0.5862
Epoch: 00 |  Iteration: 04000 | Loss: 0.6270 | Training Accuracy: 63.9648 | AUC Score: 0.6961
Epoch: 00 |  Iteration: 08000 | Loss: 0.6162 | Training Accuracy: 66.2109 | AUC Score: 0.7200
Epoch: 00 |  Iteration: 12000 | Loss: 0.6081 | Training Accuracy: 65.2344 | AUC Score: 0.7198
…
