…
      ndata_schemes={'protvec': Scheme(shape=(300,), dtype=torch.float32), 'biovec': Scheme(shape=(1024,), dtype=torch.float32), 'alphafold': Scheme(shape=(384,), dtype=torch.float32), 'esm': Scheme(shape=(1280,), dtype=torch.float32), 'concatenated': Scheme(shape=(1408,), dtype=torch.float32)}
      edata_schemes={'weight': Scheme(shape=(), dtype=torch.float32)})
Graph and protein mapping loaded successfully!
Number of nodes in graph: 21435
Data Loading is completed
Total Number of Edges:  10275677
Train Number of Edges:  7192975
Valid Number of Edges:  2055135
Test Number of Edges:  1027567
Graph Splitting is completed
For Feature: concatenated ; flag 1.10a Sage Model
=================================
flag 1.10b Sage Model:
 SAGE(
  (layers): ModuleList(
    (0): SAGEConv(
      (feat_drop): Dropout(p=0.0, inplace=False)
      (fc_neigh): Linear(in_features=1408, out_features=160, bias=False)
      (fc_self): Linear(in_features=1408, out_features=160, bias=True)
    )
    (1): SAGEConv(
      (feat_drop): Dropout(p=0.0, inplace=False)
      (fc_neigh): Linear(in_features=160, out_features=160, bias=False)
      (fc_self): Linear(in_features=160, out_features=160, bias=True)
    )
    (2): SAGEConv(
      (feat_drop): Dropout(p=0.0, inplace=False)
      (fc_neigh): Linear(in_features=160, out_features=160, bias=False)
      (fc_self): Linear(in_features=160, out_features=160, bias=True)
    )
  )
  (predictor): Sequential(
    (0): Linear(in_features=160, out_features=160, bias=True)
    (1): ReLU()
    (2): Linear(in_features=160, out_features=160, bias=True)
    (3): ReLU()
    (4): Linear(in_features=160, out_features=1, bias=True)
  )
  (dropout): Dropout(p=0.2, inplace=False)
)
Epoch: 00 |  Iteration: 00000 | Loss: 0.6940 | Training Accuracy: 51.8555 | AUC Score: 0.4646
Epoch: 00 |  Iteration: 04000 | Loss: 0.5773 | Training Accuracy: 73.7305 | AUC Score: 0.8089
Epoch: 00 |  Iteration: 08000 | Loss: 0.5620 | Training Accuracy: 72.2656 | AUC Score: 0.7935
Epoch: 00 |  Iteration: 12000 | Loss: 0.5527 | Training Accuracy: 73.0469 | AUC Score: 0.8168
…
True Negative: 0.3943227059646719
False Positive: 0.1056772940353281
confusion_matrix: [[0.39432271 0.10567729]
 [0.11323349 0.38676651]]
J   = 0.5621784272947652
MCC = 0.5622426347208819
AUC = 0.8643256030110092
Accuracy using deepdrug method:  = 78.1089%
Precision = 0.7854
Recall = 0.7735
F1 Score = 0.7794
=== === === ===


Epoch: 19 | Final Performance: 00000 | Loss: 0.0000 | Testing Accuracy: 78.1089 | AUC Score: 0.8643


=================================
For Feature: concatenated ; flag 1.10b GAT Model
=================================
flag 1.10b gat Model:
 GAT(
  (layers): ModuleList(
    (0): GATConv(
      (fc): Linear(in_features=1408, out_features=4096, bias=False)
      (feat_drop): Dropout(p=0.0, inplace=False)
      (attn_drop): Dropout(p=0.0, inplace=False)
      (leaky_relu): LeakyReLU(negative_slope=0.2)
    )
    (1): GATConv(
      (fc): Linear(in_features=4096, out_features=2048, bias=False)
      (feat_drop): Dropout(p=0.0, inplace=False)
      (attn_drop): Dropout(p=0.0, inplace=False)
      (leaky_relu): LeakyReLU(negative_slope=0.2)
    )
    (2): GATConv(
      (fc): Linear(in_features=2048, out_features=160, bias=False)
      (feat_drop): Dropout(p=0.0, inplace=False)
      (attn_drop): Dropout(p=0.0, inplace=False)
      (leaky_relu): LeakyReLU(negative_slope=0.2)
    )
  )
  (predictor): Sequential(
    (0): Linear(in_features=160, out_features=80, bias=True)
    (1): LeakyReLU(negative_slope=0.2)
    (2): Linear(in_features=80, out_features=40, bias=True)
    (3): LeakyReLU(negative_slope=0.2)
    (4): Linear(in_features=40, out_features=1, bias=True)
  )
  (dropout): Dropout(p=0.2, inplace=False)
)
Epoch: 00 |  Iteration: 00000 | Loss: 0.6971 | Training Accuracy: 50.1953 | AUC Score: 0.4896
Epoch: 00 |  Iteration: 04000 | Loss: 0.6188 | Training Accuracy: 66.6992 | AUC Score: 0.7262
Epoch: 00 |  Iteration: 08000 | Loss: 0.6062 | Training Accuracy: 65.9180 | AUC Score: 0.7320
Epoch: 00 |  Iteration: 12000 | Loss: 0.6001 | Training Accuracy: 68.9453 | AUC Score: 0.7577
…
False Positive: 0.21476993714278486
confusion_matrix: [[0.28523006 0.21476994]
 [0.15808507 0.34191493]]
J   = 0.25428998790346524
MCC = 0.2559400671276493
AUC = 0.6886645599276832
Accuracy using deepdrug method:  = 62.7145%
Precision = 0.6142
Recall = 0.6838
F1 Score = 0.6471
=== === === ===


Epoch: 19 | Final Performance: 00000 | Loss: 0.0000 | Testing Accuracy: 62.7145 | AUC Score: 0.6887


=================================
For Feature: concatenated ; flag 1.10d GIN Model
=================================
flag 1.10b gin Model:
 GIN(
  (layers): ModuleList(
    (0): GINConv(
      (apply_func): Sequential(
        (0): Linear(in_features=1408, out_features=128, bias=True)
        (1): ReLU()
        (2): Linear(in_features=128, out_features=160, bias=True)
      )
    )
    (1): GINConv(
      (apply_func): Sequential(
        (0): Linear(in_features=160, out_features=128, bias=True)
        (1): ReLU()
        (2): Linear(in_features=128, out_features=160, bias=True)
      )
    )
    (2): GINConv(
      (apply_func): Sequential(
        (0): Linear(in_features=160, out_features=128, bias=True)
        (1): ReLU()
        (2): Linear(in_features=128, out_features=160, bias=True)
      )
    )
    (3): GINConv(
      (apply_func): Sequential(
        (0): Linear(in_features=160, out_features=128, bias=True)
        (1): ReLU()
        (2): Linear(in_features=128, out_features=160, bias=True)
      )
    )
  )
  (predictor): Sequential(
    (0): Linear(in_features=160, out_features=80, bias=True)
    (1): ReLU()
    (2): Linear(in_features=80, out_features=1, bias=True)
  )
)
Epoch: 00 |  Iteration: 00000 | Loss: 0.6931 | Training Accuracy: 54.8828 | AUC Score: 0.5561
Epoch: 00 |  Iteration: 04000 | Loss: 0.6221 | Training Accuracy: 64.7461 | AUC Score: 0.7065
Epoch: 00 |  Iteration: 08000 | Loss: 0.6104 | Training Accuracy: 67.3828 | AUC Score: 0.7363
Epoch: 00 |  Iteration: 12000 | Loss: 0.6012 | Training Accuracy: 66.3086 | AUC Score: 0.7349
…
