…
      ndata_schemes={'protvec': Scheme(shape=(300,), dtype=torch.float32), 'biovec': Scheme(shape=(1024,), dtype=torch.float32), 'alphafold': Scheme(shape=(384,), dtype=torch.float32), 'esm': Scheme(shape=(1280,), dtype=torch.float32), 'concatenated': Scheme(shape=(1324,), dtype=torch.float32)}
      edata_schemes={'weight': Scheme(shape=(), dtype=torch.float32)})
Graph and protein mapping loaded successfully!
Number of nodes in graph: 21435
Data Loading is completed
Total Number of Edges:  10275677
Train Number of Edges:  7192975
Valid Number of Edges:  2055135
Test Number of Edges:  1027567
Graph Splitting is completed
For Feature: concatenated ; flag 1.10a Sage Model
=================================
flag 1.10b Sage Model:
 SAGE(
  (layers): ModuleList(
    (0): SAGEConv(
      (feat_drop): Dropout(p=0.0, inplace=False)
      (fc_neigh): Linear(in_features=1324, out_features=160, bias=False)
      (fc_self): Linear(in_features=1324, out_features=160, bias=True)
    )
    (1): SAGEConv(
      (feat_drop): Dropout(p=0.0, inplace=False)
      (fc_neigh): Linear(in_features=160, out_features=160, bias=False)
      (fc_self): Linear(in_features=160, out_features=160, bias=True)
    )
    (2): SAGEConv(
      (feat_drop): Dropout(p=0.0, inplace=False)
      (fc_neigh): Linear(in_features=160, out_features=160, bias=False)
      (fc_self): Linear(in_features=160, out_features=160, bias=True)
    )
  )
  (predictor): Sequential(
    (0): Linear(in_features=160, out_features=160, bias=True)
    (1): ReLU()
    (2): Linear(in_features=160, out_features=160, bias=True)
    (3): ReLU()
    (4): Linear(in_features=160, out_features=1, bias=True)
  )
  (dropout): Dropout(p=0.2, inplace=False)
)
Epoch: 00 |  Iteration: 00000 | Loss: 0.6936 | Training Accuracy: 54.7852 | AUC Score: 0.5518
Epoch: 00 |  Iteration: 04000 | Loss: 0.6428 | Training Accuracy: 66.4062 | AUC Score: 0.7248
Epoch: 00 |  Iteration: 08000 | Loss: 0.6191 | Training Accuracy: 68.4570 | AUC Score: 0.7500
Epoch: 00 |  Iteration: 12000 | Loss: 0.6064 | Training Accuracy: 68.7500 | AUC Score: 0.7492
…
False Positive: 0.1361935523425723
confusion_matrix: [[0.36380645 0.13619355]
 [0.14694078 0.35305922]]
J   = 0.43373132846811924
MCC = 0.4338315577181485
AUC = 0.7956018457289875
Accuracy using deepdrug method:  = 71.6866%
Precision = 0.7216
Recall = 0.7061
F1 Score = 0.7138
=== === === ===


Epoch: 19 | Final Performance: 00000 | Loss: 0.0000 | Testing Accuracy: 71.6866 | AUC Score: 0.7956


=================================
For Feature: concatenated ; flag 1.10d GIN Model
=================================
flag 1.10b gin Model:
 GIN(
  (layers): ModuleList(
    (0): GINConv(
      (apply_func): Sequential(
        (0): Linear(in_features=1324, out_features=128, bias=True)
        (1): ReLU()
        (2): Linear(in_features=128, out_features=160, bias=True)
      )
    )
    (1): GINConv(
      (apply_func): Sequential(
        (0): Linear(in_features=160, out_features=128, bias=True)
        (1): ReLU()
        (2): Linear(in_features=128, out_features=160, bias=True)
      )
    )
    (2): GINConv(
      (apply_func): Sequential(
        (0): Linear(in_features=160, out_features=128, bias=True)
        (1): ReLU()
        (2): Linear(in_features=128, out_features=160, bias=True)
      )
    )
    (3): GINConv(
      (apply_func): Sequential(
        (0): Linear(in_features=160, out_features=128, bias=True)
        (1): ReLU()
        (2): Linear(in_features=128, out_features=160, bias=True)
      )
    )
  )
  (predictor): Sequential(
    (0): Linear(in_features=160, out_features=80, bias=True)
    (1): ReLU()
    (2): Linear(in_features=80, out_features=1, bias=True)
  )
)
Epoch: 00 |  Iteration: 00000 | Loss: 0.6948 | Training Accuracy: 50.2930 | AUC Score: 0.4314
Epoch: 00 |  Iteration: 04000 | Loss: 0.6600 | Training Accuracy: 63.4766 | AUC Score: 0.6769
Epoch: 00 |  Iteration: 08000 | Loss: 0.6430 | Training Accuracy: 65.0391 | AUC Score: 0.7045
Epoch: 00 |  Iteration: 12000 | Loss: 0.6346 | Training Accuracy: 63.4766 | AUC Score: 0.6861
…
False Positive: 4.865862761260336e-07
confusion_matrix: [[4.99999513e-01 4.86586276e-07]
 [4.99994648e-01 5.35244904e-06]]
J   = 9.731725522543755e-06
MCC = 0.002013680538502141
AUC = 0.312857196839173
Accuracy using deepdrug method:  = 50.0005%
Precision = 0.9167
Recall = 0.0000
F1 Score = 0.0000
=== === === ===


Epoch: 19 | Final Performance: 00000 | Loss: 0.0000 | Testing Accuracy: 50.0005 | AUC Score: 0.3129


=================================
For Feature: concatenated ; flag 1.10b GAT Model
=================================
flag 1.10b gat Model:
 GAT(
  (layers): ModuleList(
    (0): GATConv(
      (fc): Linear(in_features=1324, out_features=4096, bias=False)
      (feat_drop): Dropout(p=0.0, inplace=False)
      (attn_drop): Dropout(p=0.0, inplace=False)
      (leaky_relu): LeakyReLU(negative_slope=0.2)
    )
    (1): GATConv(
      (fc): Linear(in_features=4096, out_features=2048, bias=False)
      (feat_drop): Dropout(p=0.0, inplace=False)
      (attn_drop): Dropout(p=0.0, inplace=False)
      (leaky_relu): LeakyReLU(negative_slope=0.2)
    )
    (2): GATConv(
      (fc): Linear(in_features=2048, out_features=160, bias=False)
      (feat_drop): Dropout(p=0.0, inplace=False)
      (attn_drop): Dropout(p=0.0, inplace=False)
      (leaky_relu): LeakyReLU(negative_slope=0.2)
    )
  )
  (predictor): Sequential(
    (0): Linear(in_features=160, out_features=80, bias=True)
    (1): LeakyReLU(negative_slope=0.2)
    (2): Linear(in_features=80, out_features=40, bias=True)
    (3): LeakyReLU(negative_slope=0.2)
    (4): Linear(in_features=40, out_features=1, bias=True)
  )
  (dropout): Dropout(p=0.2, inplace=False)
)
Epoch: 00 |  Iteration: 00000 | Loss: 0.6942 | Training Accuracy: 52.1484 | AUC Score: 0.5051
Epoch: 00 |  Iteration: 04000 | Loss: 0.6837 | Training Accuracy: 56.0547 | AUC Score: 0.5669
Epoch: 00 |  Iteration: 08000 | Loss: 0.6684 | Training Accuracy: 58.1055 | AUC Score: 0.6214
Epoch: 00 |  Iteration: 12000 | Loss: 0.6615 | Training Accuracy: 58.8867 | AUC Score: 0.6333
…
