…
      ndata_schemes={'protvec': Scheme(shape=(300,), dtype=torch.float32), 'biovec': Scheme(shape=(1024,), dtype=torch.float32), 'alphafold': Scheme(shape=(384,), dtype=torch.float32), 'esm': Scheme(shape=(1280,), dtype=torch.float32), 'concatenated': Scheme(shape=(1408,), dtype=torch.float32)}
      edata_schemes={'weight': Scheme(shape=(), dtype=torch.float32)})
Graph and protein mapping loaded successfully!
Number of nodes in graph: 21435
Data Loading is completed
Total Number of Edges:  10275677
Train Number of Edges:  7192975
Valid Number of Edges:  2055135
Test Number of Edges:  1027567
Graph Splitting is completed
For Feature: concatenated ; flag 1.10a Sage Model
=================================
flag 1.10b Sage Model:
 SAGE(
  (layers): ModuleList(
    (0): SAGEConv(
      (feat_drop): Dropout(p=0.0, inplace=False)
      (fc_neigh): Linear(in_features=1408, out_features=160, bias=False)
      (fc_self): Linear(in_features=1408, out_features=160, bias=True)
    )
    (1): SAGEConv(
      (feat_drop): Dropout(p=0.0, inplace=False)
      (fc_neigh): Linear(in_features=160, out_features=160, bias=False)
      (fc_self): Linear(in_features=160, out_features=160, bias=True)
    )
    (2): SAGEConv(
      (feat_drop): Dropout(p=0.0, inplace=False)
      (fc_neigh): Linear(in_features=160, out_features=160, bias=False)
      (fc_self): Linear(in_features=160, out_features=160, bias=True)
    )
  )
  (predictor): Sequential(
    (0): Linear(in_features=160, out_features=160, bias=True)
    (1): ReLU()
    (2): Linear(in_features=160, out_features=160, bias=True)
    (3): ReLU()
    (4): Linear(in_features=160, out_features=1, bias=True)
  )
  (dropout): Dropout(p=0.2, inplace=False)
)
Epoch: 00 |  Iteration: 00000 | Loss: 0.6932 | Training Accuracy: 50.0000 | AUC Score: 0.4401
Epoch: 00 |  Iteration: 04000 | Loss: 0.5336 | Training Accuracy: 76.1719 | AUC Score: 0.8322
Epoch: 00 |  Iteration: 08000 | Loss: 0.5208 | Training Accuracy: 76.8555 | AUC Score: 0.8435
Epoch: 00 |  Iteration: 12000 | Loss: 0.5139 | Training Accuracy: 75.9766 | AUC Score: 0.8348
…
False Positive: 0.1810923277995498
confusion_matrix: [[0.31890767 0.18109233]
 [0.13507927 0.36492073]]
J   = 0.36765680486041297
MCC = 0.3692235704732052
AUC = 0.7539532577247011
Accuracy using deepdrug method:  = 68.3828%
Precision = 0.6683
Recall = 0.7298
F1 Score = 0.6977
=== === === ===


Epoch: 19 | Final Performance: 00000 | Loss: 0.0000 | Testing Accuracy: 68.3828 | AUC Score: 0.7540


=================================
For Feature: concatenated ; flag 1.10d GIN Model
=================================
flag 1.10b gin Model:
 GIN(
  (layers): ModuleList(
    (0): GINConv(
      (apply_func): Sequential(
        (0): Linear(in_features=1408, out_features=128, bias=True)
        (1): ReLU()
        (2): Linear(in_features=128, out_features=160, bias=True)
      )
    )
    (1): GINConv(
      (apply_func): Sequential(
        (0): Linear(in_features=160, out_features=128, bias=True)
        (1): ReLU()
        (2): Linear(in_features=128, out_features=160, bias=True)
      )
    )
    (2): GINConv(
      (apply_func): Sequential(
        (0): Linear(in_features=160, out_features=128, bias=True)
        (1): ReLU()
        (2): Linear(in_features=128, out_features=160, bias=True)
      )
    )
    (3): GINConv(
      (apply_func): Sequential(
        (0): Linear(in_features=160, out_features=128, bias=True)
        (1): ReLU()
        (2): Linear(in_features=128, out_features=160, bias=True)
      )
    )
  )
  (predictor): Sequential(
    (0): Linear(in_features=160, out_features=80, bias=True)
    (1): ReLU()
    (2): Linear(in_features=80, out_features=1, bias=True)
  )
)
Epoch: 00 |  Iteration: 00000 | Loss: 0.6931 | Training Accuracy: 54.8828 | AUC Score: 0.5561
Epoch: 00 |  Iteration: 04000 | Loss: 0.6025 | Training Accuracy: 66.9922 | AUC Score: 0.7384
Epoch: 00 |  Iteration: 08000 | Loss: 0.5905 | Training Accuracy: 68.5547 | AUC Score: 0.7495
Epoch: 00 |  Iteration: 12000 | Loss: 0.5843 | Training Accuracy: 66.6992 | AUC Score: 0.7462
…
True Negative: 0.48344438854108784
False Positive: 0.016555611458912167
confusion_matrix: [[0.48344439 0.01655561]
 [0.45168977 0.04831023]]
J   = 0.06350924075997
MCC = 0.12893235959057897
AUC = 0.41346798966360393
Accuracy using deepdrug method:  = 53.1755%
Precision = 0.7448
Recall = 0.0966
F1 Score = 0.1711
=== === === ===


Epoch: 19 | Final Performance: 00000 | Loss: 0.0000 | Testing Accuracy: 53.1755 | AUC Score: 0.4135


=================================
For Feature: concatenated ; flag 1.10b GAT Model
=================================
flag 1.10b gat Model:
 GAT(
  (layers): ModuleList(
    (0): GATConv(
      (fc): Linear(in_features=1408, out_features=4096, bias=False)
      (feat_drop): Dropout(p=0.0, inplace=False)
      (attn_drop): Dropout(p=0.0, inplace=False)
      (leaky_relu): LeakyReLU(negative_slope=0.2)
    )
    (1): GATConv(
      (fc): Linear(in_features=4096, out_features=2048, bias=False)
      (feat_drop): Dropout(p=0.0, inplace=False)
      (attn_drop): Dropout(p=0.0, inplace=False)
      (leaky_relu): LeakyReLU(negative_slope=0.2)
    )
    (2): GATConv(
      (fc): Linear(in_features=2048, out_features=160, bias=False)
      (feat_drop): Dropout(p=0.0, inplace=False)
      (attn_drop): Dropout(p=0.0, inplace=False)
      (leaky_relu): LeakyReLU(negative_slope=0.2)
    )
  )
  (predictor): Sequential(
    (0): Linear(in_features=160, out_features=80, bias=True)
    (1): LeakyReLU(negative_slope=0.2)
    (2): Linear(in_features=80, out_features=40, bias=True)
    (3): LeakyReLU(negative_slope=0.2)
    (4): Linear(in_features=40, out_features=1, bias=True)
  )
  (dropout): Dropout(p=0.2, inplace=False)
)
Epoch: 00 |  Iteration: 00000 | Loss: 0.6932 | Training Accuracy: 52.6367 | AUC Score: 0.5016
Epoch: 00 |  Iteration: 04000 | Loss: 0.5845 | Training Accuracy: 70.6055 | AUC Score: 0.7742
Epoch: 00 |  Iteration: 08000 | Loss: 0.5677 | Training Accuracy: 72.2656 | AUC Score: 0.7988
Epoch: 00 |  Iteration: 12000 | Loss: 0.5604 | Training Accuracy: 70.5078 | AUC Score: 0.7815
…
