…
False Positive: 0.1309729681860161
confusion_matrix: [[0.36902703 0.13097297]
 [0.14704005 0.35295995]]
J   = 0.44397396958057245
MCC = 0.44420337192552917
AUC = 0.8002343253100968
Accuracy using deepdrug method:  = 72.1987%
Precision = 0.7294
Recall = 0.7059
F1 Score = 0.7174
=== === === ===


Epoch: 19 | Final Performance: 00000 | Loss: 0.0000 | Testing Accuracy: 72.1987 | AUC Score: 0.8002


=================================
For Feature: concatenated ; flag 1.10d GIN Model
=================================
flag 1.10b gin Model:
 GIN(
  (layers): ModuleList(
    (0): GINConv(
      (apply_func): Sequential(
        (0): Linear(in_features=1708, out_features=128, bias=True)
        (1): ReLU()
        (2): Linear(in_features=128, out_features=160, bias=True)
      )
    )
    (1): GINConv(
      (apply_func): Sequential(
        (0): Linear(in_features=160, out_features=128, bias=True)
        (1): ReLU()
        (2): Linear(in_features=128, out_features=160, bias=True)
      )
    )
    (2): GINConv(
      (apply_func): Sequential(
        (0): Linear(in_features=160, out_features=128, bias=True)
        (1): ReLU()
        (2): Linear(in_features=128, out_features=160, bias=True)
      )
    )
    (3): GINConv(
      (apply_func): Sequential(
        (0): Linear(in_features=160, out_features=128, bias=True)
        (1): ReLU()
        (2): Linear(in_features=128, out_features=160, bias=True)
      )
    )
  )
  (predictor): Sequential(
    (0): Linear(in_features=160, out_features=80, bias=True)
    (1): ReLU()
    (2): Linear(in_features=80, out_features=1, bias=True)
  )
)
Epoch: 00 |  Iteration: 00000 | Loss: 0.6933 | Training Accuracy: 50.0000 | AUC Score: 0.4262
Epoch: 00 |  Iteration: 04000 | Loss: 0.6357 | Training Accuracy: 64.7461 | AUC Score: 0.6889
Epoch: 00 |  Iteration: 08000 | Loss: 0.6201 | Training Accuracy: 67.2852 | AUC Score: 0.7320
Epoch: 00 |  Iteration: 12000 | Loss: 0.6104 | Training Accuracy: 65.0391 | AUC Score: 0.7145
…
