…
      ndata_schemes={'protvec': Scheme(shape=(300,), dtype=torch.float32), 'biovec': Scheme(shape=(1024,), dtype=torch.float32), 'alphafold': Scheme(shape=(384,), dtype=torch.float32), 'esm': Scheme(shape=(1280,), dtype=torch.float32), 'concatenated': Scheme(shape=(1708,), dtype=torch.float32)}
      edata_schemes={'weight': Scheme(shape=(), dtype=torch.float32)})
Graph and protein mapping loaded successfully!
Number of nodes in graph: 21435
Data Loading is completed
Total Number of Edges:  10275677
Train Number of Edges:  7192975
Valid Number of Edges:  2055135
Test Number of Edges:  1027567
Graph Splitting is completed
For Feature: concatenated ; flag 1.10a Sage Model
=================================
flag 1.10b Sage Model:
 SAGE(
  (layers): ModuleList(
    (0): SAGEConv(
      (feat_drop): Dropout(p=0.0, inplace=False)
      (fc_neigh): Linear(in_features=1708, out_features=160, bias=False)
      (fc_self): Linear(in_features=1708, out_features=160, bias=True)
    )
    (1): SAGEConv(
      (feat_drop): Dropout(p=0.0, inplace=False)
      (fc_neigh): Linear(in_features=160, out_features=160, bias=False)
      (fc_self): Linear(in_features=160, out_features=160, bias=True)
    )
    (2): SAGEConv(
      (feat_drop): Dropout(p=0.0, inplace=False)
      (fc_neigh): Linear(in_features=160, out_features=160, bias=False)
      (fc_self): Linear(in_features=160, out_features=160, bias=True)
    )
  )
  (predictor): Sequential(
    (0): Linear(in_features=160, out_features=160, bias=True)
    (1): ReLU()
    (2): Linear(in_features=160, out_features=160, bias=True)
    (3): ReLU()
    (4): Linear(in_features=160, out_features=1, bias=True)
  )
  (dropout): Dropout(p=0.2, inplace=False)
)
Epoch: 00 |  Iteration: 00000 | Loss: 0.6935 | Training Accuracy: 51.4648 | AUC Score: 0.5092
Epoch: 00 |  Iteration: 04000 | Loss: 0.5382 | Training Accuracy: 75.0977 | AUC Score: 0.8178
Epoch: 00 |  Iteration: 08000 | Loss: 0.5251 | Training Accuracy: 76.0742 | AUC Score: 0.8402
Epoch: 00 |  Iteration: 12000 | Loss: 0.5181 | Training Accuracy: 75.5859 | AUC Score: 0.8240
…
False Positive: 0.19918798482240088
confusion_matrix: [[0.30081202 0.19918798]
 [0.12493978 0.37506022]]
J   = 0.35174446045853935
MCC = 0.35568799162033515
AUC = 0.746964013236688
Accuracy using deepdrug method:  = 67.5872%
Precision = 0.6531
Recall = 0.7501
F1 Score = 0.6983
=== === === ===


Epoch: 19 | Final Performance: 00000 | Loss: 0.0000 | Testing Accuracy: 67.5872 | AUC Score: 0.7470


=================================
For Feature: concatenated ; flag 1.10d GIN Model
=================================
flag 1.10b gin Model:
 GIN(
  (layers): ModuleList(
    (0): GINConv(
      (apply_func): Sequential(
        (0): Linear(in_features=1708, out_features=128, bias=True)
        (1): ReLU()
        (2): Linear(in_features=128, out_features=160, bias=True)
      )
    )
    (1): GINConv(
      (apply_func): Sequential(
        (0): Linear(in_features=160, out_features=128, bias=True)
        (1): ReLU()
        (2): Linear(in_features=128, out_features=160, bias=True)
      )
    )
    (2): GINConv(
      (apply_func): Sequential(
        (0): Linear(in_features=160, out_features=128, bias=True)
        (1): ReLU()
        (2): Linear(in_features=128, out_features=160, bias=True)
      )
    )
    (3): GINConv(
      (apply_func): Sequential(
        (0): Linear(in_features=160, out_features=128, bias=True)
        (1): ReLU()
        (2): Linear(in_features=128, out_features=160, bias=True)
      )
    )
  )
  (predictor): Sequential(
    (0): Linear(in_features=160, out_features=80, bias=True)
    (1): ReLU()
    (2): Linear(in_features=80, out_features=1, bias=True)
  )
)
Epoch: 00 |  Iteration: 00000 | Loss: 0.6933 | Training Accuracy: 50.0000 | AUC Score: 0.4424
Epoch: 00 |  Iteration: 04000 | Loss: 0.6188 | Training Accuracy: 64.4531 | AUC Score: 0.6982
Epoch: 00 |  Iteration: 08000 | Loss: 0.6039 | Training Accuracy: 68.9453 | AUC Score: 0.7542
Epoch: 00 |  Iteration: 12000 | Loss: 0.5940 | Training Accuracy: 65.8203 | AUC Score: 0.7276
…
False Positive: 0.0013819050241979354
confusion_matrix: [[0.49861809 0.00138191]
 [0.49760892 0.00239108]]
J   = 0.002018359873370734
MCC = 0.016460636535990444
AUC = 0.35079753993593105
Accuracy using deepdrug method:  = 50.1009%
Precision = 0.6337
Recall = 0.0048
F1 Score = 0.0095
=== === === ===


Epoch: 19 | Final Performance: 00000 | Loss: 0.0000 | Testing Accuracy: 50.1009 | AUC Score: 0.3508


=================================
For Feature: concatenated ; flag 1.10b GAT Model
=================================
flag 1.10b gat Model:
 GAT(
  (layers): ModuleList(
    (0): GATConv(
      (fc): Linear(in_features=1708, out_features=4096, bias=False)
      (feat_drop): Dropout(p=0.0, inplace=False)
      (attn_drop): Dropout(p=0.0, inplace=False)
      (leaky_relu): LeakyReLU(negative_slope=0.2)
    )
    (1): GATConv(
      (fc): Linear(in_features=4096, out_features=2048, bias=False)
      (feat_drop): Dropout(p=0.0, inplace=False)
      (attn_drop): Dropout(p=0.0, inplace=False)
      (leaky_relu): LeakyReLU(negative_slope=0.2)
    )
    (2): GATConv(
      (fc): Linear(in_features=2048, out_features=160, bias=False)
      (feat_drop): Dropout(p=0.0, inplace=False)
      (attn_drop): Dropout(p=0.0, inplace=False)
      (leaky_relu): LeakyReLU(negative_slope=0.2)
    )
  )
  (predictor): Sequential(
    (0): Linear(in_features=160, out_features=80, bias=True)
    (1): LeakyReLU(negative_slope=0.2)
    (2): Linear(in_features=80, out_features=40, bias=True)
    (3): LeakyReLU(negative_slope=0.2)
    (4): Linear(in_features=40, out_features=1, bias=True)
  )
  (dropout): Dropout(p=0.2, inplace=False)
)
Epoch: 00 |  Iteration: 00000 | Loss: 0.6951 | Training Accuracy: 52.5391 | AUC Score: 0.5235
Epoch: 00 |  Iteration: 04000 | Loss: 0.5897 | Training Accuracy: 69.7266 | AUC Score: 0.7596
Epoch: 00 |  Iteration: 08000 | Loss: 0.5717 | Training Accuracy: 72.1680 | AUC Score: 0.7928
Epoch: 00 |  Iteration: 12000 | Loss: 0.5636 | Training Accuracy: 70.1172 | AUC Score: 0.7713
…
