…
      ndata_schemes={'protvec': Scheme(shape=(300,), dtype=torch.float32), 'biovec': Scheme(shape=(1024,), dtype=torch.float32), 'alphafold': Scheme(shape=(384,), dtype=torch.float32), 'esm': Scheme(shape=(1280,), dtype=torch.float32), 'concatenated': Scheme(shape=(2304,), dtype=torch.float32)}
      edata_schemes={'weight': Scheme(shape=(), dtype=torch.float32)})
Graph and protein mapping loaded successfully!
Number of nodes in graph: 21435
Data Loading is completed
Total Number of Edges:  10275677
Train Number of Edges:  7192975
Valid Number of Edges:  2055135
Test Number of Edges:  1027567
Graph Splitting is completed
For Feature: concatenated ; flag 1.10a Sage Model
=================================
flag 1.10b Sage Model:
 SAGE(
  (layers): ModuleList(
    (0): SAGEConv(
      (feat_drop): Dropout(p=0.0, inplace=False)
      (fc_neigh): Linear(in_features=2304, out_features=160, bias=False)
      (fc_self): Linear(in_features=2304, out_features=160, bias=True)
    )
    (1): SAGEConv(
      (feat_drop): Dropout(p=0.0, inplace=False)
      (fc_neigh): Linear(in_features=160, out_features=160, bias=False)
      (fc_self): Linear(in_features=160, out_features=160, bias=True)
    )
    (2): SAGEConv(
      (feat_drop): Dropout(p=0.0, inplace=False)
      (fc_neigh): Linear(in_features=160, out_features=160, bias=False)
      (fc_self): Linear(in_features=160, out_features=160, bias=True)
    )
  )
  (predictor): Sequential(
    (0): Linear(in_features=160, out_features=160, bias=True)
    (1): ReLU()
    (2): Linear(in_features=160, out_features=160, bias=True)
    (3): ReLU()
    (4): Linear(in_features=160, out_features=1, bias=True)
  )
  (dropout): Dropout(p=0.2, inplace=False)
)
Epoch: 00 |  Iteration: 00000 | Loss: 0.6936 | Training Accuracy: 50.2930 | AUC Score: 0.4773
Epoch: 00 |  Iteration: 04000 | Loss: 0.5701 | Training Accuracy: 70.6055 | AUC Score: 0.7758
Epoch: 00 |  Iteration: 08000 | Loss: 0.5520 | Training Accuracy: 73.6328 | AUC Score: 0.8161
Epoch: 00 |  Iteration: 12000 | Loss: 0.5414 | Training Accuracy: 75.4883 | AUC Score: 0.8120
…
True Negative: 0.40057777254427207
False Positive: 0.09942222745572794
confusion_matrix: [[0.40057777 0.09942223]
 [0.1124822  0.3875178 ]]
J   = 0.5761911388746428
MCC = 0.5763877932431878
AUC = 0.8711443485158694
Accuracy using deepdrug method:  = 78.8096%
Precision = 0.7958
Recall = 0.7750
F1 Score = 0.7853
=== === === ===


Epoch: 19 | Final Performance: 00000 | Loss: 0.0000 | Testing Accuracy: 78.8096 | AUC Score: 0.8711


=================================
For Feature: concatenated ; flag 1.10b GAT Model
=================================
flag 1.10b gat Model:
 GAT(
  (layers): ModuleList(
    (0): GATConv(
      (fc): Linear(in_features=2304, out_features=4096, bias=False)
      (feat_drop): Dropout(p=0.0, inplace=False)
      (attn_drop): Dropout(p=0.0, inplace=False)
      (leaky_relu): LeakyReLU(negative_slope=0.2)
    )
    (1): GATConv(
      (fc): Linear(in_features=4096, out_features=2048, bias=False)
      (feat_drop): Dropout(p=0.0, inplace=False)
      (attn_drop): Dropout(p=0.0, inplace=False)
      (leaky_relu): LeakyReLU(negative_slope=0.2)
    )
    (2): GATConv(
      (fc): Linear(in_features=2048, out_features=160, bias=False)
      (feat_drop): Dropout(p=0.0, inplace=False)
      (attn_drop): Dropout(p=0.0, inplace=False)
      (leaky_relu): LeakyReLU(negative_slope=0.2)
    )
  )
  (predictor): Sequential(
    (0): Linear(in_features=160, out_features=80, bias=True)
    (1): LeakyReLU(negative_slope=0.2)
    (2): Linear(in_features=80, out_features=40, bias=True)
    (3): LeakyReLU(negative_slope=0.2)
    (4): Linear(in_features=40, out_features=1, bias=True)
  )
  (dropout): Dropout(p=0.2, inplace=False)
)
Epoch: 00 |  Iteration: 00000 | Loss: 0.6943 | Training Accuracy: 51.3672 | AUC Score: 0.4853
Epoch: 00 |  Iteration: 04000 | Loss: 0.6381 | Training Accuracy: 66.6016 | AUC Score: 0.7293
Epoch: 00 |  Iteration: 08000 | Loss: 0.6186 | Training Accuracy: 65.7227 | AUC Score: 0.7204
Epoch: 00 |  Iteration: 12000 | Loss: 0.6088 | Training Accuracy: 69.8242 | AUC Score: 0.7776
…
False Positive: 0.20147250738881262
confusion_matrix: [[0.29852749 0.20147251]
 [0.17791638 0.32208362]]
J   = 0.24122222687182449
MCC = 0.24149037750823865
AUC = 0.6634843261137954
Accuracy using deepdrug method:  = 62.0611%
Precision = 0.6152
Recall = 0.6442
F1 Score = 0.6293
=== === === ===


Epoch: 19 | Final Performance: 00000 | Loss: 0.0000 | Testing Accuracy: 62.0611 | AUC Score: 0.6635


=================================
For Feature: concatenated ; flag 1.10d GIN Model
=================================
flag 1.10b gin Model:
 GIN(
  (layers): ModuleList(
    (0): GINConv(
      (apply_func): Sequential(
        (0): Linear(in_features=2304, out_features=128, bias=True)
        (1): ReLU()
        (2): Linear(in_features=128, out_features=160, bias=True)
      )
    )
    (1): GINConv(
      (apply_func): Sequential(
        (0): Linear(in_features=160, out_features=128, bias=True)
        (1): ReLU()
        (2): Linear(in_features=128, out_features=160, bias=True)
      )
    )
    (2): GINConv(
      (apply_func): Sequential(
        (0): Linear(in_features=160, out_features=128, bias=True)
        (1): ReLU()
        (2): Linear(in_features=128, out_features=160, bias=True)
      )
    )
    (3): GINConv(
      (apply_func): Sequential(
        (0): Linear(in_features=160, out_features=128, bias=True)
        (1): ReLU()
        (2): Linear(in_features=128, out_features=160, bias=True)
      )
    )
  )
  (predictor): Sequential(
    (0): Linear(in_features=160, out_features=80, bias=True)
    (1): ReLU()
    (2): Linear(in_features=80, out_features=1, bias=True)
  )
)
Epoch: 00 |  Iteration: 00000 | Loss: 0.6932 | Training Accuracy: 50.0000 | AUC Score: 0.4149
Epoch: 00 |  Iteration: 04000 | Loss: 0.6201 | Training Accuracy: 65.0391 | AUC Score: 0.7094
Epoch: 00 |  Iteration: 08000 | Loss: 0.6075 | Training Accuracy: 67.9688 | AUC Score: 0.7401
Epoch: 00 |  Iteration: 12000 | Loss: 0.5988 | Training Accuracy: 66.7969 | AUC Score: 0.7341
…
