…
      ndata_schemes={'protvec': Scheme(shape=(300,), dtype=torch.float32), 'biovec': Scheme(shape=(1024,), dtype=torch.float32), 'alphafold': Scheme(shape=(384,), dtype=torch.float32), 'esm': Scheme(shape=(1280,), dtype=torch.float32), 'concatenated': Scheme(shape=(1664,), dtype=torch.float32)}
      edata_schemes={'weight': Scheme(shape=(), dtype=torch.float32)})
Graph and protein mapping loaded successfully!
Number of nodes in graph: 21435
Data Loading is completed
Total Number of Edges:  10275677
Train Number of Edges:  7192975
Valid Number of Edges:  2055135
Test Number of Edges:  1027567
Graph Splitting is completed
For Feature: concatenated ; flag 1.10a Sage Model
=================================
flag 1.10b Sage Model:
 SAGE(
  (layers): ModuleList(
    (0): SAGEConv(
      (feat_drop): Dropout(p=0.0, inplace=False)
      (fc_neigh): Linear(in_features=1664, out_features=160, bias=False)
      (fc_self): Linear(in_features=1664, out_features=160, bias=True)
    )
    (1): SAGEConv(
      (feat_drop): Dropout(p=0.0, inplace=False)
      (fc_neigh): Linear(in_features=160, out_features=160, bias=False)
      (fc_self): Linear(in_features=160, out_features=160, bias=True)
    )
    (2): SAGEConv(
      (feat_drop): Dropout(p=0.0, inplace=False)
      (fc_neigh): Linear(in_features=160, out_features=160, bias=False)
      (fc_self): Linear(in_features=160, out_features=160, bias=True)
    )
  )
  (predictor): Sequential(
    (0): Linear(in_features=160, out_features=160, bias=True)
    (1): ReLU()
    (2): Linear(in_features=160, out_features=160, bias=True)
    (3): ReLU()
    (4): Linear(in_features=160, out_features=1, bias=True)
  )
  (dropout): Dropout(p=0.2, inplace=False)
)
Epoch: 00 |  Iteration: 00000 | Loss: 0.6934 | Training Accuracy: 55.4688 | AUC Score: 0.5526
Epoch: 00 |  Iteration: 04000 | Loss: 0.5380 | Training Accuracy: 75.9766 | AUC Score: 0.8347
Epoch: 00 |  Iteration: 08000 | Loss: 0.5230 | Training Accuracy: 76.6602 | AUC Score: 0.8453
Epoch: 00 |  Iteration: 12000 | Loss: 0.5154 | Training Accuracy: 76.3672 | AUC Score: 0.8400
…
False Positive: 0.16682367183843
confusion_matrix: [[0.33317633 0.16682367]
 [0.15041209 0.34958791]]
J   = 0.36552847648863773
MCC = 0.3657255386282845
AUC = 0.7560747459412012
Accuracy using deepdrug method:  = 68.2764%
Precision = 0.6770
Recall = 0.6992
F1 Score = 0.6879
=== === === ===


Epoch: 19 | Final Performance: 00000 | Loss: 0.0000 | Testing Accuracy: 68.2764 | AUC Score: 0.7561


=================================
For Feature: concatenated ; flag 1.10d GIN Model
=================================
flag 1.10b gin Model:
 GIN(
  (layers): ModuleList(
    (0): GINConv(
      (apply_func): Sequential(
        (0): Linear(in_features=1664, out_features=128, bias=True)
        (1): ReLU()
        (2): Linear(in_features=128, out_features=160, bias=True)
      )
    )
    (1): GINConv(
      (apply_func): Sequential(
        (0): Linear(in_features=160, out_features=128, bias=True)
        (1): ReLU()
        (2): Linear(in_features=128, out_features=160, bias=True)
      )
    )
    (2): GINConv(
      (apply_func): Sequential(
        (0): Linear(in_features=160, out_features=128, bias=True)
        (1): ReLU()
        (2): Linear(in_features=128, out_features=160, bias=True)
      )
    )
    (3): GINConv(
      (apply_func): Sequential(
        (0): Linear(in_features=160, out_features=128, bias=True)
        (1): ReLU()
        (2): Linear(in_features=128, out_features=160, bias=True)
      )
    )
  )
  (predictor): Sequential(
    (0): Linear(in_features=160, out_features=80, bias=True)
    (1): ReLU()
    (2): Linear(in_features=80, out_features=1, bias=True)
  )
)
Epoch: 00 |  Iteration: 00000 | Loss: 0.6939 | Training Accuracy: 56.7383 | AUC Score: 0.5862
Epoch: 00 |  Iteration: 04000 | Loss: 0.6085 | Training Accuracy: 65.6250 | AUC Score: 0.7221
Epoch: 00 |  Iteration: 08000 | Loss: 0.5962 | Training Accuracy: 67.8711 | AUC Score: 0.7471
Epoch: 00 |  Iteration: 12000 | Loss: 0.5884 | Training Accuracy: 66.5039 | AUC Score: 0.7399
…
True Negative: 0.499463295337433
False Positive: 0.0005367046625670151
confusion_matrix: [[0.4994633  0.0005367 ]
 [0.49872612 0.00127388]]
J   = 0.0014743564166619372
MCC = 0.0173402855993378
AUC = 0.3145655231724723
Accuracy using deepdrug method:  = 50.0737%
Precision = 0.7036
Recall = 0.0025
F1 Score = 0.0051
=== === === ===


Epoch: 19 | Final Performance: 00000 | Loss: 0.0000 | Testing Accuracy: 50.0737 | AUC Score: 0.3146


=================================
For Feature: concatenated ; flag 1.10b GAT Model
=================================
flag 1.10b gat Model:
 GAT(
  (layers): ModuleList(
    (0): GATConv(
      (fc): Linear(in_features=1664, out_features=4096, bias=False)
      (feat_drop): Dropout(p=0.0, inplace=False)
      (attn_drop): Dropout(p=0.0, inplace=False)
      (leaky_relu): LeakyReLU(negative_slope=0.2)
    )
    (1): GATConv(
      (fc): Linear(in_features=4096, out_features=2048, bias=False)
      (feat_drop): Dropout(p=0.0, inplace=False)
      (attn_drop): Dropout(p=0.0, inplace=False)
      (leaky_relu): LeakyReLU(negative_slope=0.2)
    )
    (2): GATConv(
      (fc): Linear(in_features=2048, out_features=160, bias=False)
      (feat_drop): Dropout(p=0.0, inplace=False)
      (attn_drop): Dropout(p=0.0, inplace=False)
      (leaky_relu): LeakyReLU(negative_slope=0.2)
    )
  )
  (predictor): Sequential(
    (0): Linear(in_features=160, out_features=80, bias=True)
    (1): LeakyReLU(negative_slope=0.2)
    (2): Linear(in_features=80, out_features=40, bias=True)
    (3): LeakyReLU(negative_slope=0.2)
    (4): Linear(in_features=40, out_features=1, bias=True)
  )
  (dropout): Dropout(p=0.2, inplace=False)
)
Epoch: 00 |  Iteration: 00000 | Loss: 0.6932 | Training Accuracy: 50.7812 | AUC Score: 0.4934
Epoch: 00 |  Iteration: 04000 | Loss: 0.5973 | Training Accuracy: 70.5078 | AUC Score: 0.7721
Epoch: 00 |  Iteration: 08000 | Loss: 0.5756 | Training Accuracy: 72.0703 | AUC Score: 0.7967
Epoch: 00 |  Iteration: 12000 | Loss: 0.5664 | Training Accuracy: 70.9961 | AUC Score: 0.7831
…
