…
      ndata_schemes={'protvec': Scheme(shape=(300,), dtype=torch.float32), 'biovec': Scheme(shape=(1024,), dtype=torch.float32), 'alphafold': Scheme(shape=(384,), dtype=torch.float32), 'esm': Scheme(shape=(1280,), dtype=torch.float32), 'concatenated': Scheme(shape=(2988,), dtype=torch.float32)}
      edata_schemes={'weight': Scheme(shape=(), dtype=torch.float32)})
Graph and protein mapping loaded successfully!
Number of nodes in graph: 21435
Data Loading is completed
Total Number of Edges:  10275677
Train Number of Edges:  7192975
Valid Number of Edges:  2055135
Test Number of Edges:  1027567
Graph Splitting is completed
For Feature: concatenated ; flag 1.10a Sage Model
=================================
flag 1.10b Sage Model:
 SAGE(
  (layers): ModuleList(
    (0): SAGEConv(
      (feat_drop): Dropout(p=0.0, inplace=False)
      (fc_neigh): Linear(in_features=2988, out_features=160, bias=False)
      (fc_self): Linear(in_features=2988, out_features=160, bias=True)
    )
    (1): SAGEConv(
      (feat_drop): Dropout(p=0.0, inplace=False)
      (fc_neigh): Linear(in_features=160, out_features=160, bias=False)
      (fc_self): Linear(in_features=160, out_features=160, bias=True)
    )
    (2): SAGEConv(
      (feat_drop): Dropout(p=0.0, inplace=False)
      (fc_neigh): Linear(in_features=160, out_features=160, bias=False)
      (fc_self): Linear(in_features=160, out_features=160, bias=True)
    )
  )
  (predictor): Sequential(
    (0): Linear(in_features=160, out_features=160, bias=True)
    (1): ReLU()
    (2): Linear(in_features=160, out_features=160, bias=True)
    (3): ReLU()
    (4): Linear(in_features=160, out_features=1, bias=True)
  )
  (dropout): Dropout(p=0.2, inplace=False)
)
Epoch: 00 |  Iteration: 00000 | Loss: 0.6934 | Training Accuracy: 52.8320 | AUC Score: 0.5205
Epoch: 00 |  Iteration: 04000 | Loss: 0.6361 | Training Accuracy: 67.1875 | AUC Score: 0.7305
Epoch: 00 |  Iteration: 08000 | Loss: 0.6156 | Training Accuracy: 71.1914 | AUC Score: 0.7693
Epoch: 00 |  Iteration: 12000 | Loss: 0.6038 | Training Accuracy: 67.8711 | AUC Score: 0.7484
…
True Negative: 0.38063698036235105
False Positive: 0.11936301963764893
confusion_matrix: [[0.38063698 0.11936302]
 [0.12731627 0.37268373]]
J   = 0.5066414160828443
MCC = 0.5067055226716808
AUC = 0.8349716316987958
Accuracy using deepdrug method:  = 75.3321%
Precision = 0.7574
Recall = 0.7454
F1 Score = 0.7513
=== === === ===


Epoch: 19 | Final Performance: 00000 | Loss: 0.0000 | Testing Accuracy: 75.3321 | AUC Score: 0.8350


=================================
For Feature: concatenated ; flag 1.10b GAT Model
=================================
flag 1.10b gat Model:
 GAT(
  (layers): ModuleList(
    (0): GATConv(
      (fc): Linear(in_features=2988, out_features=4096, bias=False)
      (feat_drop): Dropout(p=0.0, inplace=False)
      (attn_drop): Dropout(p=0.0, inplace=False)
      (leaky_relu): LeakyReLU(negative_slope=0.2)
    )
    (1): GATConv(
      (fc): Linear(in_features=4096, out_features=2048, bias=False)
      (feat_drop): Dropout(p=0.0, inplace=False)
      (attn_drop): Dropout(p=0.0, inplace=False)
      (leaky_relu): LeakyReLU(negative_slope=0.2)
    )
    (2): GATConv(
      (fc): Linear(in_features=2048, out_features=160, bias=False)
      (feat_drop): Dropout(p=0.0, inplace=False)
      (attn_drop): Dropout(p=0.0, inplace=False)
      (leaky_relu): LeakyReLU(negative_slope=0.2)
    )
  )
  (predictor): Sequential(
    (0): Linear(in_features=160, out_features=80, bias=True)
    (1): LeakyReLU(negative_slope=0.2)
    (2): Linear(in_features=80, out_features=40, bias=True)
    (3): LeakyReLU(negative_slope=0.2)
    (4): Linear(in_features=40, out_features=1, bias=True)
  )
  (dropout): Dropout(p=0.2, inplace=False)
)
Epoch: 00 |  Iteration: 00000 | Loss: 0.6988 | Training Accuracy: 49.4141 | AUC Score: 0.4792
Epoch: 00 |  Iteration: 04000 | Loss: 0.6937 | Training Accuracy: 55.4688 | AUC Score: 0.5597
Epoch: 00 |  Iteration: 08000 | Loss: 0.6841 | Training Accuracy: 58.6914 | AUC Score: 0.5760
Epoch: 00 |  Iteration: 12000 | Loss: 0.6710 | Training Accuracy: 58.5938 | AUC Score: 0.6015
…
False Positive: 0.180710844159067
confusion_matrix: [[0.31928916 0.18071084]
 [0.17027357 0.32972643]]
J   = 0.29803117460953876
MCC = 0.29809612891672477
AUC = 0.7172651041173913
Accuracy using deepdrug method:  = 64.9016%
Precision = 0.6460
Recall = 0.6595
F1 Score = 0.6526
=== === === ===


Epoch: 19 | Final Performance: 00000 | Loss: 0.0000 | Testing Accuracy: 64.9016 | AUC Score: 0.7173


=================================
For Feature: concatenated ; flag 1.10d GIN Model
=================================
flag 1.10b gin Model:
 GIN(
  (layers): ModuleList(
    (0): GINConv(
      (apply_func): Sequential(
        (0): Linear(in_features=2988, out_features=128, bias=True)
        (1): ReLU()
        (2): Linear(in_features=128, out_features=160, bias=True)
      )
    )
    (1): GINConv(
      (apply_func): Sequential(
        (0): Linear(in_features=160, out_features=128, bias=True)
        (1): ReLU()
        (2): Linear(in_features=128, out_features=160, bias=True)
      )
    )
    (2): GINConv(
      (apply_func): Sequential(
        (0): Linear(in_features=160, out_features=128, bias=True)
        (1): ReLU()
        (2): Linear(in_features=128, out_features=160, bias=True)
      )
    )
    (3): GINConv(
      (apply_func): Sequential(
        (0): Linear(in_features=160, out_features=128, bias=True)
        (1): ReLU()
        (2): Linear(in_features=128, out_features=160, bias=True)
      )
    )
  )
  (predictor): Sequential(
    (0): Linear(in_features=160, out_features=80, bias=True)
    (1): ReLU()
    (2): Linear(in_features=80, out_features=1, bias=True)
  )
)
Epoch: 00 |  Iteration: 00000 | Loss: 0.6932 | Training Accuracy: 50.0000 | AUC Score: 0.4303
Epoch: 00 |  Iteration: 04000 | Loss: 0.6704 | Training Accuracy: 56.5430 | AUC Score: 0.5820
Epoch: 00 |  Iteration: 08000 | Loss: 0.6575 | Training Accuracy: 60.6445 | AUC Score: 0.6567
Epoch: 00 |  Iteration: 12000 | Loss: 0.6485 | Training Accuracy: 61.4258 | AUC Score: 0.6667
…
