…
      ndata_schemes={'protvec': Scheme(shape=(300,), dtype=torch.float32), 'biovec': Scheme(shape=(1024,), dtype=torch.float32), 'alphafold': Scheme(shape=(384,), dtype=torch.float32), 'esm': Scheme(shape=(1280,), dtype=torch.float32), 'concatenated': Scheme(shape=(1664,), dtype=torch.float32)}
      edata_schemes={'weight': Scheme(shape=(), dtype=torch.float32)})
Graph and protein mapping loaded successfully!
Number of nodes in graph: 21435
Data Loading is completed
Total Number of Edges:  10275677
Train Number of Edges:  7192975
Valid Number of Edges:  2055135
Test Number of Edges:  1027567
Graph Splitting is completed
For Feature: concatenated ; flag 1.10a Sage Model
=================================
flag 1.10b Sage Model:
 SAGE(
  (layers): ModuleList(
    (0): SAGEConv(
      (feat_drop): Dropout(p=0.0, inplace=False)
      (fc_neigh): Linear(in_features=1664, out_features=160, bias=False)
      (fc_self): Linear(in_features=1664, out_features=160, bias=True)
    )
    (1): SAGEConv(
      (feat_drop): Dropout(p=0.0, inplace=False)
      (fc_neigh): Linear(in_features=160, out_features=160, bias=False)
      (fc_self): Linear(in_features=160, out_features=160, bias=True)
    )
    (2): SAGEConv(
      (feat_drop): Dropout(p=0.0, inplace=False)
      (fc_neigh): Linear(in_features=160, out_features=160, bias=False)
      (fc_self): Linear(in_features=160, out_features=160, bias=True)
    )
  )
  (predictor): Sequential(
    (0): Linear(in_features=160, out_features=160, bias=True)
    (1): ReLU()
    (2): Linear(in_features=160, out_features=160, bias=True)
    (3): ReLU()
    (4): Linear(in_features=160, out_features=1, bias=True)
  )
  (dropout): Dropout(p=0.2, inplace=False)
)
Epoch: 00 |  Iteration: 00000 | Loss: 0.6933 | Training Accuracy: 54.4922 | AUC Score: 0.5377
Epoch: 00 |  Iteration: 04000 | Loss: 0.6613 | Training Accuracy: 62.6953 | AUC Score: 0.6703
Epoch: 00 |  Iteration: 08000 | Loss: 0.6479 | Training Accuracy: 62.8906 | AUC Score: 0.6727
Epoch: 00 |  Iteration: 12000 | Loss: 0.6384 | Training Accuracy: 65.4297 | AUC Score: 0.7062
…
False Positive: 0.12185580113024261
confusion_matrix: [[0.3781442  0.1218558 ]
 [0.14910707 0.35089293]]
J   = 0.4580742666901525
MCC = 0.458756146901879
AUC = 0.8083763104754444
Accuracy using deepdrug method:  = 72.9037%
Precision = 0.7422
Recall = 0.7018
F1 Score = 0.7214
=== === === ===


Epoch: 19 | Final Performance: 00000 | Loss: 0.0000 | Testing Accuracy: 72.9037 | AUC Score: 0.8084


=================================
For Feature: concatenated ; flag 1.10d GIN Model
=================================
flag 1.10b gin Model:
 GIN(
  (layers): ModuleList(
    (0): GINConv(
      (apply_func): Sequential(
        (0): Linear(in_features=1664, out_features=128, bias=True)
        (1): ReLU()
        (2): Linear(in_features=128, out_features=160, bias=True)
      )
    )
    (1): GINConv(
      (apply_func): Sequential(
        (0): Linear(in_features=160, out_features=128, bias=True)
        (1): ReLU()
        (2): Linear(in_features=128, out_features=160, bias=True)
      )
    )
    (2): GINConv(
      (apply_func): Sequential(
        (0): Linear(in_features=160, out_features=128, bias=True)
        (1): ReLU()
        (2): Linear(in_features=128, out_features=160, bias=True)
      )
    )
    (3): GINConv(
      (apply_func): Sequential(
        (0): Linear(in_features=160, out_features=128, bias=True)
        (1): ReLU()
        (2): Linear(in_features=128, out_features=160, bias=True)
      )
    )
  )
  (predictor): Sequential(
    (0): Linear(in_features=160, out_features=80, bias=True)
    (1): ReLU()
    (2): Linear(in_features=80, out_features=1, bias=True)
  )
)
Epoch: 00 |  Iteration: 00000 | Loss: 0.6939 | Training Accuracy: 56.7383 | AUC Score: 0.5862
Epoch: 00 |  Iteration: 04000 | Loss: 0.6678 | Training Accuracy: 59.6680 | AUC Score: 0.6399
Epoch: 00 |  Iteration: 08000 | Loss: 0.6478 | Training Accuracy: 64.5508 | AUC Score: 0.6927
Epoch: 00 |  Iteration: 12000 | Loss: 0.6387 | Training Accuracy: 62.9883 | AUC Score: 0.6803
…
False Positive: 2.4329313806301683e-06
confusion_matrix: [[4.99997567e-01 2.43293138e-06]
 [4.99993674e-01 6.32562159e-06]]
J   = 7.785380417901777e-06
MCC = 0.0013153325398950605
AUC = 0.31187394460599677
Accuracy using deepdrug method:  = 50.0004%
Precision = 0.7222
Recall = 0.0000
F1 Score = 0.0000
=== === === ===


Epoch: 19 | Final Performance: 00000 | Loss: 0.0000 | Testing Accuracy: 50.0004 | AUC Score: 0.3119


=================================
For Feature: concatenated ; flag 1.10b GAT Model
=================================
flag 1.10b gat Model:
 GAT(
  (layers): ModuleList(
    (0): GATConv(
      (fc): Linear(in_features=1664, out_features=4096, bias=False)
      (feat_drop): Dropout(p=0.0, inplace=False)
      (attn_drop): Dropout(p=0.0, inplace=False)
      (leaky_relu): LeakyReLU(negative_slope=0.2)
    )
    (1): GATConv(
      (fc): Linear(in_features=4096, out_features=2048, bias=False)
      (feat_drop): Dropout(p=0.0, inplace=False)
      (attn_drop): Dropout(p=0.0, inplace=False)
      (leaky_relu): LeakyReLU(negative_slope=0.2)
    )
    (2): GATConv(
      (fc): Linear(in_features=2048, out_features=160, bias=False)
      (feat_drop): Dropout(p=0.0, inplace=False)
      (attn_drop): Dropout(p=0.0, inplace=False)
      (leaky_relu): LeakyReLU(negative_slope=0.2)
    )
  )
  (predictor): Sequential(
    (0): Linear(in_features=160, out_features=80, bias=True)
    (1): LeakyReLU(negative_slope=0.2)
    (2): Linear(in_features=80, out_features=40, bias=True)
    (3): LeakyReLU(negative_slope=0.2)
    (4): Linear(in_features=40, out_features=1, bias=True)
  )
  (dropout): Dropout(p=0.2, inplace=False)
)
Epoch: 00 |  Iteration: 00000 | Loss: 0.6940 | Training Accuracy: 51.3672 | AUC Score: 0.4928
Epoch: 00 |  Iteration: 04000 | Loss: 0.6837 | Training Accuracy: 55.5664 | AUC Score: 0.5433
Epoch: 00 |  Iteration: 08000 | Loss: 0.6692 | Training Accuracy: 58.7891 | AUC Score: 0.5940
Epoch: 00 |  Iteration: 12000 | Loss: 0.6627 | Training Accuracy: 57.8125 | AUC Score: 0.6156
…
