…
      ndata_schemes={'protvec': Scheme(shape=(300,), dtype=torch.float32), 'biovec': Scheme(shape=(1024,), dtype=torch.float32), 'alphafold': Scheme(shape=(384,), dtype=torch.float32), 'esm': Scheme(shape=(1280,), dtype=torch.float32), 'concatenated': Scheme(shape=(1324,), dtype=torch.float32)}
      edata_schemes={'weight': Scheme(shape=(), dtype=torch.float32)})
Graph and protein mapping loaded successfully!
Number of nodes in graph: 21435
Data Loading is completed
Total Number of Edges:  10275677
Train Number of Edges:  7192975
Valid Number of Edges:  2055135
Test Number of Edges:  1027567
Graph Splitting is completed
For Feature: concatenated ; flag 1.10a Sage Model
=================================
flag 1.10b Sage Model:
 SAGE(
  (layers): ModuleList(
    (0): SAGEConv(
      (feat_drop): Dropout(p=0.0, inplace=False)
      (fc_neigh): Linear(in_features=1324, out_features=160, bias=False)
      (fc_self): Linear(in_features=1324, out_features=160, bias=True)
    )
    (1): SAGEConv(
      (feat_drop): Dropout(p=0.0, inplace=False)
      (fc_neigh): Linear(in_features=160, out_features=160, bias=False)
      (fc_self): Linear(in_features=160, out_features=160, bias=True)
    )
    (2): SAGEConv(
      (feat_drop): Dropout(p=0.0, inplace=False)
      (fc_neigh): Linear(in_features=160, out_features=160, bias=False)
      (fc_self): Linear(in_features=160, out_features=160, bias=True)
    )
  )
  (predictor): Sequential(
    (0): Linear(in_features=160, out_features=160, bias=True)
    (1): ReLU()
    (2): Linear(in_features=160, out_features=160, bias=True)
    (3): ReLU()
    (4): Linear(in_features=160, out_features=1, bias=True)
  )
  (dropout): Dropout(p=0.2, inplace=False)
)
Epoch: 00 |  Iteration: 00000 | Loss: 0.6935 | Training Accuracy: 52.5391 | AUC Score: 0.5200
Epoch: 00 |  Iteration: 04000 | Loss: 0.5369 | Training Accuracy: 74.4141 | AUC Score: 0.8114
Epoch: 00 |  Iteration: 08000 | Loss: 0.5237 | Training Accuracy: 74.8047 | AUC Score: 0.8312
Epoch: 00 |  Iteration: 12000 | Loss: 0.5170 | Training Accuracy: 77.3438 | AUC Score: 0.8399
…
False Positive: 0.15490133490078992
confusion_matrix: [[0.34509867 0.15490133]
 [0.1612727  0.3387273 ]]
J   = 0.3676519389976516
MCC = 0.36768179173325916
AUC = 0.7534637814831289
Accuracy using deepdrug method:  = 68.3826%
Precision = 0.6862
Recall = 0.6775
F1 Score = 0.6818
=== === === ===


Epoch: 19 | Final Performance: 00000 | Loss: 0.0000 | Testing Accuracy: 68.3826 | AUC Score: 0.7535


=================================
For Feature: concatenated ; flag 1.10d GIN Model
=================================
flag 1.10b gin Model:
 GIN(
  (layers): ModuleList(
    (0): GINConv(
      (apply_func): Sequential(
        (0): Linear(in_features=1324, out_features=128, bias=True)
        (1): ReLU()
        (2): Linear(in_features=128, out_features=160, bias=True)
      )
    )
    (1): GINConv(
      (apply_func): Sequential(
        (0): Linear(in_features=160, out_features=128, bias=True)
        (1): ReLU()
        (2): Linear(in_features=128, out_features=160, bias=True)
      )
    )
    (2): GINConv(
      (apply_func): Sequential(
        (0): Linear(in_features=160, out_features=128, bias=True)
        (1): ReLU()
        (2): Linear(in_features=128, out_features=160, bias=True)
      )
    )
    (3): GINConv(
      (apply_func): Sequential(
        (0): Linear(in_features=160, out_features=128, bias=True)
        (1): ReLU()
        (2): Linear(in_features=128, out_features=160, bias=True)
      )
    )
  )
  (predictor): Sequential(
    (0): Linear(in_features=160, out_features=80, bias=True)
    (1): ReLU()
    (2): Linear(in_features=80, out_features=1, bias=True)
  )
)
Epoch: 00 |  Iteration: 00000 | Loss: 0.6948 | Training Accuracy: 50.2930 | AUC Score: 0.4314
Epoch: 00 |  Iteration: 04000 | Loss: 0.6504 | Training Accuracy: 56.5430 | AUC Score: 0.5691
Epoch: 00 |  Iteration: 08000 | Loss: 0.6389 | Training Accuracy: 66.5039 | AUC Score: 0.7282
Epoch: 00 |  Iteration: 12000 | Loss: 0.6264 | Training Accuracy: 64.5508 | AUC Score: 0.7130
…
True Negative: 0.4457105960000662
False Positive: 0.05428940399993382
confusion_matrix: [[0.4457106  0.0542894 ]
 [0.38226072 0.11773928]]
J   = 0.12689975446856505
MCC = 0.16812128688080308
AUC = 0.551744913323815
Accuracy using deepdrug method:  = 56.3450%
Precision = 0.6844
Recall = 0.2355
F1 Score = 0.3504
=== === === ===


Epoch: 19 | Final Performance: 00000 | Loss: 0.0000 | Testing Accuracy: 56.3450 | AUC Score: 0.5517


=================================
For Feature: concatenated ; flag 1.10b GAT Model
=================================
flag 1.10b gat Model:
 GAT(
  (layers): ModuleList(
    (0): GATConv(
      (fc): Linear(in_features=1324, out_features=4096, bias=False)
      (feat_drop): Dropout(p=0.0, inplace=False)
      (attn_drop): Dropout(p=0.0, inplace=False)
      (leaky_relu): LeakyReLU(negative_slope=0.2)
    )
    (1): GATConv(
      (fc): Linear(in_features=4096, out_features=2048, bias=False)
      (feat_drop): Dropout(p=0.0, inplace=False)
      (attn_drop): Dropout(p=0.0, inplace=False)
      (leaky_relu): LeakyReLU(negative_slope=0.2)
    )
    (2): GATConv(
      (fc): Linear(in_features=2048, out_features=160, bias=False)
      (feat_drop): Dropout(p=0.0, inplace=False)
      (attn_drop): Dropout(p=0.0, inplace=False)
      (leaky_relu): LeakyReLU(negative_slope=0.2)
    )
  )
  (predictor): Sequential(
    (0): Linear(in_features=160, out_features=80, bias=True)
    (1): LeakyReLU(negative_slope=0.2)
    (2): Linear(in_features=80, out_features=40, bias=True)
    (3): LeakyReLU(negative_slope=0.2)
    (4): Linear(in_features=40, out_features=1, bias=True)
  )
  (dropout): Dropout(p=0.2, inplace=False)
)
Epoch: 00 |  Iteration: 00000 | Loss: 0.6936 | Training Accuracy: 52.4414 | AUC Score: 0.5000
Epoch: 00 |  Iteration: 04000 | Loss: 0.5897 | Training Accuracy: 71.0938 | AUC Score: 0.7698
Epoch: 00 |  Iteration: 08000 | Loss: 0.5713 | Training Accuracy: 72.2656 | AUC Score: 0.7965
Epoch: 00 |  Iteration: 12000 | Loss: 0.5633 | Training Accuracy: 70.6055 | AUC Score: 0.7853
…
