…
      ndata_schemes={'protvec': Scheme(shape=(300,), dtype=torch.float32), 'biovec': Scheme(shape=(1024,), dtype=torch.float32), 'alphafold': Scheme(shape=(384,), dtype=torch.float32), 'esm': Scheme(shape=(1280,), dtype=torch.float32), 'concatenated': Scheme(shape=(1964,), dtype=torch.float32)}
      edata_schemes={'weight': Scheme(shape=(), dtype=torch.float32)})
Graph and protein mapping loaded successfully!
Number of nodes in graph: 21435
Data Loading is completed
Total Number of Edges:  10275677
Train Number of Edges:  7192975
Valid Number of Edges:  2055135
Test Number of Edges:  1027567
Graph Splitting is completed
For Feature: concatenated ; flag 1.10a Sage Model
=================================
flag 1.10b Sage Model:
 SAGE(
  (layers): ModuleList(
    (0): SAGEConv(
      (feat_drop): Dropout(p=0.0, inplace=False)
      (fc_neigh): Linear(in_features=1964, out_features=160, bias=False)
      (fc_self): Linear(in_features=1964, out_features=160, bias=True)
    )
    (1): SAGEConv(
      (feat_drop): Dropout(p=0.0, inplace=False)
      (fc_neigh): Linear(in_features=160, out_features=160, bias=False)
      (fc_self): Linear(in_features=160, out_features=160, bias=True)
    )
    (2): SAGEConv(
      (feat_drop): Dropout(p=0.0, inplace=False)
      (fc_neigh): Linear(in_features=160, out_features=160, bias=False)
      (fc_self): Linear(in_features=160, out_features=160, bias=True)
    )
  )
  (predictor): Sequential(
    (0): Linear(in_features=160, out_features=160, bias=True)
    (1): ReLU()
    (2): Linear(in_features=160, out_features=160, bias=True)
    (3): ReLU()
    (4): Linear(in_features=160, out_features=1, bias=True)
  )
  (dropout): Dropout(p=0.2, inplace=False)
)
Epoch: 00 |  Iteration: 00000 | Loss: 0.6932 | Training Accuracy: 53.2227 | AUC Score: 0.5272
Epoch: 00 |  Iteration: 04000 | Loss: 0.5427 | Training Accuracy: 77.2461 | AUC Score: 0.8408
Epoch: 00 |  Iteration: 08000 | Loss: 0.5274 | Training Accuracy: 75.5859 | AUC Score: 0.8401
Epoch: 00 |  Iteration: 12000 | Loss: 0.5198 | Training Accuracy: 75.4883 | AUC Score: 0.8212
…
False Positive: 0.18769433039402783
confusion_matrix: [[0.31230567 0.18769433]
 [0.1358218  0.3641782 ]]
J   = 0.35296773835672024
MCC = 0.3548827129996099
AUC = 0.7493004469922353
Accuracy using deepdrug method:  = 67.6484%
Precision = 0.6599
Recall = 0.7284
F1 Score = 0.6924
=== === === ===


Epoch: 19 | Final Performance: 00000 | Loss: 0.0000 | Testing Accuracy: 67.6484 | AUC Score: 0.7493


=================================
For Feature: concatenated ; flag 1.10d GIN Model
=================================
flag 1.10b gin Model:
 GIN(
  (layers): ModuleList(
    (0): GINConv(
      (apply_func): Sequential(
        (0): Linear(in_features=1964, out_features=128, bias=True)
        (1): ReLU()
        (2): Linear(in_features=128, out_features=160, bias=True)
      )
    )
    (1): GINConv(
      (apply_func): Sequential(
        (0): Linear(in_features=160, out_features=128, bias=True)
        (1): ReLU()
        (2): Linear(in_features=128, out_features=160, bias=True)
      )
    )
    (2): GINConv(
      (apply_func): Sequential(
        (0): Linear(in_features=160, out_features=128, bias=True)
        (1): ReLU()
        (2): Linear(in_features=128, out_features=160, bias=True)
      )
    )
    (3): GINConv(
      (apply_func): Sequential(
        (0): Linear(in_features=160, out_features=128, bias=True)
        (1): ReLU()
        (2): Linear(in_features=128, out_features=160, bias=True)
      )
    )
  )
  (predictor): Sequential(
    (0): Linear(in_features=160, out_features=80, bias=True)
    (1): ReLU()
    (2): Linear(in_features=80, out_features=1, bias=True)
  )
)
Epoch: 00 |  Iteration: 00000 | Loss: 0.6943 | Training Accuracy: 50.0000 | AUC Score: 0.4014
Epoch: 00 |  Iteration: 04000 | Loss: 0.6476 | Training Accuracy: 56.7383 | AUC Score: 0.5746
Epoch: 00 |  Iteration: 08000 | Loss: 0.6436 | Training Accuracy: 59.7656 | AUC Score: 0.6232
Epoch: 00 |  Iteration: 12000 | Loss: 0.6418 | Training Accuracy: 59.1797 | AUC Score: 0.6266
…
True Negative: 0.43060403847145734
False Positive: 0.06939596152854266
confusion_matrix: [[0.43060404 0.06939596]
 [0.40975917 0.09024083]]
J   = 0.041689738965926315
MCC = 0.05691138681039624
AUC = 0.4210186777628827
Accuracy using deepdrug method:  = 52.0845%
Precision = 0.5653
Recall = 0.1805
F1 Score = 0.2736
=== === === ===


Epoch: 19 | Final Performance: 00000 | Loss: 0.0000 | Testing Accuracy: 52.0845 | AUC Score: 0.4210


=================================
For Feature: concatenated ; flag 1.10b GAT Model
=================================
flag 1.10b gat Model:
 GAT(
  (layers): ModuleList(
    (0): GATConv(
      (fc): Linear(in_features=1964, out_features=4096, bias=False)
      (feat_drop): Dropout(p=0.0, inplace=False)
      (attn_drop): Dropout(p=0.0, inplace=False)
      (leaky_relu): LeakyReLU(negative_slope=0.2)
    )
    (1): GATConv(
      (fc): Linear(in_features=4096, out_features=2048, bias=False)
      (feat_drop): Dropout(p=0.0, inplace=False)
      (attn_drop): Dropout(p=0.0, inplace=False)
      (leaky_relu): LeakyReLU(negative_slope=0.2)
    )
    (2): GATConv(
      (fc): Linear(in_features=2048, out_features=160, bias=False)
      (feat_drop): Dropout(p=0.0, inplace=False)
      (attn_drop): Dropout(p=0.0, inplace=False)
      (leaky_relu): LeakyReLU(negative_slope=0.2)
    )
  )
  (predictor): Sequential(
    (0): Linear(in_features=160, out_features=80, bias=True)
    (1): LeakyReLU(negative_slope=0.2)
    (2): Linear(in_features=80, out_features=40, bias=True)
    (3): LeakyReLU(negative_slope=0.2)
    (4): Linear(in_features=40, out_features=1, bias=True)
  )
  (dropout): Dropout(p=0.2, inplace=False)
)
Epoch: 00 |  Iteration: 00000 | Loss: 0.6934 | Training Accuracy: 52.5391 | AUC Score: 0.5217
Epoch: 00 |  Iteration: 04000 | Loss: 0.6048 | Training Accuracy: 68.4570 | AUC Score: 0.7429
Epoch: 00 |  Iteration: 08000 | Loss: 0.5836 | Training Accuracy: 71.2891 | AUC Score: 0.7850
Epoch: 00 |  Iteration: 12000 | Loss: 0.5725 | Training Accuracy: 70.1172 | AUC Score: 0.7773
…
