…
False Positive: 0.1260292516205756
confusion_matrix: [[0.37397075 0.12602925]
 [0.14217759 0.35782241]]
J   = 0.4635863160261082
MCC = 0.4638282830706499
AUC = 0.809533665740303
Accuracy using deepdrug method:  = 73.1793%
Precision = 0.7395
Recall = 0.7156
F1 Score = 0.7274
=== === === ===


Epoch: 19 | Final Performance: 00000 | Loss: 0.0000 | Testing Accuracy: 73.1793 | AUC Score: 0.8095


=================================
For Feature: concatenated ; flag 1.10d GIN Model
=================================
flag 1.10b gin Model:
 GIN(
  (layers): ModuleList(
    (0): GINConv(
      (apply_func): Sequential(
        (0): Linear(in_features=1964, out_features=128, bias=True)
        (1): ReLU()
        (2): Linear(in_features=128, out_features=160, bias=True)
      )
    )
    (1): GINConv(
      (apply_func): Sequential(
        (0): Linear(in_features=160, out_features=128, bias=True)
        (1): ReLU()
        (2): Linear(in_features=128, out_features=160, bias=True)
      )
    )
    (2): GINConv(
      (apply_func): Sequential(
        (0): Linear(in_features=160, out_features=128, bias=True)
        (1): ReLU()
        (2): Linear(in_features=128, out_features=160, bias=True)
      )
    )
    (3): GINConv(
      (apply_func): Sequential(
        (0): Linear(in_features=160, out_features=128, bias=True)
        (1): ReLU()
        (2): Linear(in_features=128, out_features=160, bias=True)
      )
    )
  )
  (predictor): Sequential(
    (0): Linear(in_features=160, out_features=80, bias=True)
    (1): ReLU()
    (2): Linear(in_features=80, out_features=1, bias=True)
  )
)
Epoch: 00 |  Iteration: 00000 | Loss: 0.6943 | Training Accuracy: 50.0000 | AUC Score: 0.4014
Epoch: 00 |  Iteration: 04000 | Loss: 0.6353 | Training Accuracy: 66.8945 | AUC Score: 0.7191
Epoch: 00 |  Iteration: 08000 | Loss: 0.6233 | Training Accuracy: 66.5039 | AUC Score: 0.7161
Epoch: 00 |  Iteration: 12000 | Loss: 0.6160 | Training Accuracy: 67.3828 | AUC Score: 0.7355
…
