…
      ndata_schemes={'protvec': Scheme(shape=(300,), dtype=torch.float32), 'biovec': Scheme(shape=(1024,), dtype=torch.float32), 'alphafold': Scheme(shape=(384,), dtype=torch.float32), 'esm': Scheme(shape=(1280,), dtype=torch.float32), 'concatenated': Scheme(shape=(1580,), dtype=torch.float32)}
      edata_schemes={'weight': Scheme(shape=(), dtype=torch.float32)})
Graph and protein mapping loaded successfully!
Number of nodes in graph: 21435
Data Loading is completed
Total Number of Edges:  10275677
Train Number of Edges:  7192975
Valid Number of Edges:  2055135
Test Number of Edges:  1027567
Graph Splitting is completed
For Feature: concatenated ; flag 1.10a Sage Model
=================================
flag 1.10b Sage Model:
 SAGE(
  (layers): ModuleList(
    (0): SAGEConv(
      (feat_drop): Dropout(p=0.0, inplace=False)
      (fc_neigh): Linear(in_features=1580, out_features=160, bias=False)
      (fc_self): Linear(in_features=1580, out_features=160, bias=True)
    )
    (1): SAGEConv(
      (feat_drop): Dropout(p=0.0, inplace=False)
      (fc_neigh): Linear(in_features=160, out_features=160, bias=False)
      (fc_self): Linear(in_features=160, out_features=160, bias=True)
    )
    (2): SAGEConv(
      (feat_drop): Dropout(p=0.0, inplace=False)
      (fc_neigh): Linear(in_features=160, out_features=160, bias=False)
      (fc_self): Linear(in_features=160, out_features=160, bias=True)
    )
  )
  (predictor): Sequential(
    (0): Linear(in_features=160, out_features=160, bias=True)
    (1): ReLU()
    (2): Linear(in_features=160, out_features=160, bias=True)
    (3): ReLU()
    (4): Linear(in_features=160, out_features=1, bias=True)
  )
  (dropout): Dropout(p=0.2, inplace=False)
)
Epoch: 00 |  Iteration: 00000 | Loss: 0.6932 | Training Accuracy: 50.7812 | AUC Score: 0.4571
Epoch: 00 |  Iteration: 04000 | Loss: 0.6569 | Training Accuracy: 62.0117 | AUC Score: 0.6601
Epoch: 00 |  Iteration: 08000 | Loss: 0.6424 | Training Accuracy: 64.6484 | AUC Score: 0.6916
Epoch: 00 |  Iteration: 12000 | Loss: 0.6311 | Training Accuracy: 65.9180 | AUC Score: 0.7173
…
False Positive: 0.12836535233225668
confusion_matrix: [[0.37163465 0.12836535]
 [0.14323251 0.35676749]]
J   = 0.45680427650946376
MCC = 0.45700634756635067
AUC = 0.8073758381708951
Accuracy using deepdrug method:  = 72.8402%
Precision = 0.7354
Recall = 0.7135
F1 Score = 0.7243
=== === === ===


Epoch: 19 | Final Performance: 00000 | Loss: 0.0000 | Testing Accuracy: 72.8402 | AUC Score: 0.8074


=================================
For Feature: concatenated ; flag 1.10d GIN Model
=================================
flag 1.10b gin Model:
 GIN(
  (layers): ModuleList(
    (0): GINConv(
      (apply_func): Sequential(
        (0): Linear(in_features=1580, out_features=128, bias=True)
        (1): ReLU()
        (2): Linear(in_features=128, out_features=160, bias=True)
      )
    )
    (1): GINConv(
      (apply_func): Sequential(
        (0): Linear(in_features=160, out_features=128, bias=True)
        (1): ReLU()
        (2): Linear(in_features=128, out_features=160, bias=True)
      )
    )
    (2): GINConv(
      (apply_func): Sequential(
        (0): Linear(in_features=160, out_features=128, bias=True)
        (1): ReLU()
        (2): Linear(in_features=128, out_features=160, bias=True)
      )
    )
    (3): GINConv(
      (apply_func): Sequential(
        (0): Linear(in_features=160, out_features=128, bias=True)
        (1): ReLU()
        (2): Linear(in_features=128, out_features=160, bias=True)
      )
    )
  )
  (predictor): Sequential(
    (0): Linear(in_features=160, out_features=80, bias=True)
    (1): ReLU()
    (2): Linear(in_features=80, out_features=1, bias=True)
  )
)
Epoch: 00 |  Iteration: 00000 | Loss: 0.6931 | Training Accuracy: 56.1523 | AUC Score: 0.5806
Epoch: 00 |  Iteration: 04000 | Loss: 0.6710 | Training Accuracy: 57.4219 | AUC Score: 0.5807
Epoch: 00 |  Iteration: 08000 | Loss: 0.6596 | Training Accuracy: 60.5469 | AUC Score: 0.6249
Epoch: 00 |  Iteration: 12000 | Loss: 0.6538 | Training Accuracy: 60.3516 | AUC Score: 0.6372
…
False Positive: 3.357445305269632e-05
confusion_matrix: [[4.99966426e-01 3.35744531e-05]
 [4.99331917e-01 6.68082957e-04]]
J   = 0.0012690170081366414
MCC = 0.023962234034939963
AUC = 0.31343310423314324
Accuracy using deepdrug method:  = 50.0635%
Precision = 0.9521
Recall = 0.0013
F1 Score = 0.0027
=== === === ===


Epoch: 19 | Final Performance: 00000 | Loss: 0.0000 | Testing Accuracy: 50.0635 | AUC Score: 0.3134


=================================
For Feature: concatenated ; flag 1.10b GAT Model
=================================
flag 1.10b gat Model:
 GAT(
  (layers): ModuleList(
    (0): GATConv(
      (fc): Linear(in_features=1580, out_features=4096, bias=False)
      (feat_drop): Dropout(p=0.0, inplace=False)
      (attn_drop): Dropout(p=0.0, inplace=False)
      (leaky_relu): LeakyReLU(negative_slope=0.2)
    )
    (1): GATConv(
      (fc): Linear(in_features=4096, out_features=2048, bias=False)
      (feat_drop): Dropout(p=0.0, inplace=False)
      (attn_drop): Dropout(p=0.0, inplace=False)
      (leaky_relu): LeakyReLU(negative_slope=0.2)
    )
    (2): GATConv(
      (fc): Linear(in_features=2048, out_features=160, bias=False)
      (feat_drop): Dropout(p=0.0, inplace=False)
      (attn_drop): Dropout(p=0.0, inplace=False)
      (leaky_relu): LeakyReLU(negative_slope=0.2)
    )
  )
  (predictor): Sequential(
    (0): Linear(in_features=160, out_features=80, bias=True)
    (1): LeakyReLU(negative_slope=0.2)
    (2): Linear(in_features=80, out_features=40, bias=True)
    (3): LeakyReLU(negative_slope=0.2)
    (4): Linear(in_features=40, out_features=1, bias=True)
  )
  (dropout): Dropout(p=0.2, inplace=False)
)
Epoch: 00 |  Iteration: 00000 | Loss: 0.6978 | Training Accuracy: 46.5820 | AUC Score: 0.4837
Epoch: 00 |  Iteration: 04000 | Loss: 0.6905 | Training Accuracy: 55.5664 | AUC Score: 0.5754
Epoch: 00 |  Iteration: 08000 | Loss: 0.6732 | Training Accuracy: 58.9844 | AUC Score: 0.6202
Epoch: 00 |  Iteration: 12000 | Loss: 0.6620 | Training Accuracy: 59.7656 | AUC Score: 0.6387
…
