…
      ndata_schemes={'protvec': Scheme(shape=(300,), dtype=torch.float32), 'biovec': Scheme(shape=(1024,), dtype=torch.float32), 'alphafold': Scheme(shape=(384,), dtype=torch.float32), 'esm': Scheme(shape=(1280,), dtype=torch.float32), 'concatenated': Scheme(shape=(2688,), dtype=torch.float32)}
      edata_schemes={'weight': Scheme(shape=(), dtype=torch.float32)})
Graph and protein mapping loaded successfully!
Number of nodes in graph: 21435
Data Loading is completed
Total Number of Edges:  10275677
Train Number of Edges:  7192975
Valid Number of Edges:  2055135
Test Number of Edges:  1027567
Graph Splitting is completed
For Feature: concatenated ; flag 1.10a Sage Model
=================================
flag 1.10b Sage Model:
 SAGE(
  (layers): ModuleList(
    (0): SAGEConv(
      (feat_drop): Dropout(p=0.0, inplace=False)
      (fc_neigh): Linear(in_features=2688, out_features=160, bias=False)
      (fc_self): Linear(in_features=2688, out_features=160, bias=True)
    )
    (1): SAGEConv(
      (feat_drop): Dropout(p=0.0, inplace=False)
      (fc_neigh): Linear(in_features=160, out_features=160, bias=False)
      (fc_self): Linear(in_features=160, out_features=160, bias=True)
    )
    (2): SAGEConv(
      (feat_drop): Dropout(p=0.0, inplace=False)
      (fc_neigh): Linear(in_features=160, out_features=160, bias=False)
      (fc_self): Linear(in_features=160, out_features=160, bias=True)
    )
  )
  (predictor): Sequential(
    (0): Linear(in_features=160, out_features=160, bias=True)
    (1): ReLU()
    (2): Linear(in_features=160, out_features=160, bias=True)
    (3): ReLU()
    (4): Linear(in_features=160, out_features=1, bias=True)
  )
  (dropout): Dropout(p=0.2, inplace=False)
)
Epoch: 00 |  Iteration: 00000 | Loss: 0.6933 | Training Accuracy: 53.8086 | AUC Score: 0.5422
Epoch: 00 |  Iteration: 04000 | Loss: 0.5291 | Training Accuracy: 76.6602 | AUC Score: 0.8411
Epoch: 00 |  Iteration: 08000 | Loss: 0.5160 | Training Accuracy: 76.0742 | AUC Score: 0.8438
Epoch: 00 |  Iteration: 12000 | Loss: 0.5090 | Training Accuracy: 76.4648 | AUC Score: 0.8354
…
False Positive: 0.18266838074792202
confusion_matrix: [[0.31733162 0.18266838]
 [0.13675167 0.36324833]]
J   = 0.36115990490157834
MCC = 0.36269250457252306
AUC = 0.7508350710419615
Accuracy using deepdrug method:  = 68.0580%
Precision = 0.6654
Recall = 0.7265
F1 Score = 0.6946
=== === === ===


Epoch: 19 | Final Performance: 00000 | Loss: 0.0000 | Testing Accuracy: 68.0580 | AUC Score: 0.7508


=================================
For Feature: concatenated ; flag 1.10d GIN Model
=================================
flag 1.10b gin Model:
 GIN(
  (layers): ModuleList(
    (0): GINConv(
      (apply_func): Sequential(
        (0): Linear(in_features=2688, out_features=128, bias=True)
        (1): ReLU()
        (2): Linear(in_features=128, out_features=160, bias=True)
      )
    )
    (1): GINConv(
      (apply_func): Sequential(
        (0): Linear(in_features=160, out_features=128, bias=True)
        (1): ReLU()
        (2): Linear(in_features=128, out_features=160, bias=True)
      )
    )
    (2): GINConv(
      (apply_func): Sequential(
        (0): Linear(in_features=160, out_features=128, bias=True)
        (1): ReLU()
        (2): Linear(in_features=128, out_features=160, bias=True)
      )
    )
    (3): GINConv(
      (apply_func): Sequential(
        (0): Linear(in_features=160, out_features=128, bias=True)
        (1): ReLU()
        (2): Linear(in_features=128, out_features=160, bias=True)
      )
    )
  )
  (predictor): Sequential(
    (0): Linear(in_features=160, out_features=80, bias=True)
    (1): ReLU()
    (2): Linear(in_features=80, out_features=1, bias=True)
  )
)
Epoch: 00 |  Iteration: 00000 | Loss: 0.6933 | Training Accuracy: 55.7617 | AUC Score: 0.5446
Epoch: 00 |  Iteration: 04000 | Loss: 0.6474 | Training Accuracy: 65.0391 | AUC Score: 0.7085
Epoch: 00 |  Iteration: 08000 | Loss: 0.6244 | Training Accuracy: 69.2383 | AUC Score: 0.7546
Epoch: 00 |  Iteration: 12000 | Loss: 0.6107 | Training Accuracy: 67.7734 | AUC Score: 0.7478
…
False Positive: 5.1578145269359564e-05
confusion_matrix: [[4.99948422e-01 5.15781453e-05]
 [4.99738703e-01 2.61296830e-04]]
J   = 0.0004194373700205922
MCC = 0.011858224335890724
AUC = 0.3903848776932906
Accuracy using deepdrug method:  = 50.0210%
Precision = 0.8351
Recall = 0.0005
F1 Score = 0.0010
=== === === ===


Epoch: 19 | Final Performance: 00000 | Loss: 0.0000 | Testing Accuracy: 50.0210 | AUC Score: 0.3904


=================================
For Feature: concatenated ; flag 1.10b GAT Model
=================================
flag 1.10b gat Model:
 GAT(
  (layers): ModuleList(
    (0): GATConv(
      (fc): Linear(in_features=2688, out_features=4096, bias=False)
      (feat_drop): Dropout(p=0.0, inplace=False)
      (attn_drop): Dropout(p=0.0, inplace=False)
      (leaky_relu): LeakyReLU(negative_slope=0.2)
    )
    (1): GATConv(
      (fc): Linear(in_features=4096, out_features=2048, bias=False)
      (feat_drop): Dropout(p=0.0, inplace=False)
      (attn_drop): Dropout(p=0.0, inplace=False)
      (leaky_relu): LeakyReLU(negative_slope=0.2)
    )
    (2): GATConv(
      (fc): Linear(in_features=2048, out_features=160, bias=False)
      (feat_drop): Dropout(p=0.0, inplace=False)
      (attn_drop): Dropout(p=0.0, inplace=False)
      (leaky_relu): LeakyReLU(negative_slope=0.2)
    )
  )
  (predictor): Sequential(
    (0): Linear(in_features=160, out_features=80, bias=True)
    (1): LeakyReLU(negative_slope=0.2)
    (2): Linear(in_features=80, out_features=40, bias=True)
    (3): LeakyReLU(negative_slope=0.2)
    (4): Linear(in_features=40, out_features=1, bias=True)
  )
  (dropout): Dropout(p=0.2, inplace=False)
)
Epoch: 00 |  Iteration: 00000 | Loss: 0.6932 | Training Accuracy: 48.8281 | AUC Score: 0.4911
Epoch: 00 |  Iteration: 04000 | Loss: 0.5842 | Training Accuracy: 71.0938 | AUC Score: 0.7727
Epoch: 00 |  Iteration: 08000 | Loss: 0.5665 | Training Accuracy: 71.7773 | AUC Score: 0.8018
Epoch: 00 |  Iteration: 12000 | Loss: 0.5589 | Training Accuracy: 71.4844 | AUC Score: 0.7889
…
