…
      ndata_schemes={'protvec': Scheme(shape=(300,), dtype=torch.float32), 'biovec': Scheme(shape=(1024,), dtype=torch.float32), 'alphafold': Scheme(shape=(384,), dtype=torch.float32), 'esm': Scheme(shape=(1280,), dtype=torch.float32), 'concatenated': Scheme(shape=(684,), dtype=torch.float32)}
      edata_schemes={'weight': Scheme(shape=(), dtype=torch.float32)})
Graph and protein mapping loaded successfully!
Number of nodes in graph: 21435
Data Loading is completed
Total Number of Edges:  10275677
Train Number of Edges:  7192975
Valid Number of Edges:  2055135
Test Number of Edges:  1027567
Graph Splitting is completed
For Feature: concatenated ; flag 1.10a Sage Model
=================================
flag 1.10b Sage Model:
 SAGE(
  (layers): ModuleList(
    (0): SAGEConv(
      (feat_drop): Dropout(p=0.0, inplace=False)
      (fc_neigh): Linear(in_features=684, out_features=160, bias=False)
      (fc_self): Linear(in_features=684, out_features=160, bias=True)
    )
    (1): SAGEConv(
      (feat_drop): Dropout(p=0.0, inplace=False)
      (fc_neigh): Linear(in_features=160, out_features=160, bias=False)
      (fc_self): Linear(in_features=160, out_features=160, bias=True)
    )
    (2): SAGEConv(
      (feat_drop): Dropout(p=0.0, inplace=False)
      (fc_neigh): Linear(in_features=160, out_features=160, bias=False)
      (fc_self): Linear(in_features=160, out_features=160, bias=True)
    )
  )
  (predictor): Sequential(
    (0): Linear(in_features=160, out_features=160, bias=True)
    (1): ReLU()
    (2): Linear(in_features=160, out_features=160, bias=True)
    (3): ReLU()
    (4): Linear(in_features=160, out_features=1, bias=True)
  )
  (dropout): Dropout(p=0.2, inplace=False)
)
Epoch: 00 |  Iteration: 00000 | Loss: 0.6939 | Training Accuracy: 51.4648 | AUC Score: 0.4952
Epoch: 00 |  Iteration: 04000 | Loss: 0.6542 | Training Accuracy: 60.0586 | AUC Score: 0.6396
Epoch: 00 |  Iteration: 08000 | Loss: 0.6465 | Training Accuracy: 60.0586 | AUC Score: 0.6459
Epoch: 00 |  Iteration: 12000 | Loss: 0.6390 | Training Accuracy: 62.8906 | AUC Score: 0.6799
…
True Negative: 0.3768649635498221
False Positive: 0.12313503645017794
confusion_matrix: [[0.37686496 0.12313504]
 [0.12798241 0.37201759]]
J   = 0.49776510923375317
MCC = 0.49778850287624943
AUC = 0.8316630331650352
Accuracy using deepdrug method:  = 74.8883%
Precision = 0.7513
Recall = 0.7440
F1 Score = 0.7477
=== === === ===


Epoch: 19 | Final Performance: 00000 | Loss: 0.0000 | Testing Accuracy: 74.8883 | AUC Score: 0.8317


=================================
For Feature: concatenated ; flag 1.10b GAT Model
=================================
flag 1.10b gat Model:
 GAT(
  (layers): ModuleList(
    (0): GATConv(
      (fc): Linear(in_features=684, out_features=4096, bias=False)
      (feat_drop): Dropout(p=0.0, inplace=False)
      (attn_drop): Dropout(p=0.0, inplace=False)
      (leaky_relu): LeakyReLU(negative_slope=0.2)
    )
    (1): GATConv(
      (fc): Linear(in_features=4096, out_features=2048, bias=False)
      (feat_drop): Dropout(p=0.0, inplace=False)
      (attn_drop): Dropout(p=0.0, inplace=False)
      (leaky_relu): LeakyReLU(negative_slope=0.2)
    )
    (2): GATConv(
      (fc): Linear(in_features=2048, out_features=160, bias=False)
      (feat_drop): Dropout(p=0.0, inplace=False)
      (attn_drop): Dropout(p=0.0, inplace=False)
      (leaky_relu): LeakyReLU(negative_slope=0.2)
    )
  )
  (predictor): Sequential(
    (0): Linear(in_features=160, out_features=80, bias=True)
    (1): LeakyReLU(negative_slope=0.2)
    (2): Linear(in_features=80, out_features=40, bias=True)
    (3): LeakyReLU(negative_slope=0.2)
    (4): Linear(in_features=40, out_features=1, bias=True)
  )
  (dropout): Dropout(p=0.2, inplace=False)
)
Epoch: 00 |  Iteration: 00000 | Loss: 0.6932 | Training Accuracy: 51.5625 | AUC Score: 0.4950
Epoch: 00 |  Iteration: 04000 | Loss: 0.6562 | Training Accuracy: 57.9102 | AUC Score: 0.5885
Epoch: 00 |  Iteration: 08000 | Loss: 0.6509 | Training Accuracy: 58.8867 | AUC Score: 0.6222
Epoch: 00 |  Iteration: 12000 | Loss: 0.6454 | Training Accuracy: 63.3789 | AUC Score: 0.6968
…
False Positive: 0.21107528754815988
confusion_matrix: [[0.28892471 0.21107529]
 [0.15821693 0.34178307]]
J   = 0.2614155573310548
MCC = 0.2628887099281069
AUC = 0.6948611449503859
Accuracy using deepdrug method:  = 63.0708%
Precision = 0.6182
Recall = 0.6836
F1 Score = 0.6492
=== === === ===


Epoch: 19 | Final Performance: 00000 | Loss: 0.0000 | Testing Accuracy: 63.0708 | AUC Score: 0.6949


=================================
For Feature: concatenated ; flag 1.10d GIN Model
=================================
flag 1.10b gin Model:
 GIN(
  (layers): ModuleList(
    (0): GINConv(
      (apply_func): Sequential(
        (0): Linear(in_features=684, out_features=128, bias=True)
        (1): ReLU()
        (2): Linear(in_features=128, out_features=160, bias=True)
      )
    )
    (1): GINConv(
      (apply_func): Sequential(
        (0): Linear(in_features=160, out_features=128, bias=True)
        (1): ReLU()
        (2): Linear(in_features=128, out_features=160, bias=True)
      )
    )
    (2): GINConv(
      (apply_func): Sequential(
        (0): Linear(in_features=160, out_features=128, bias=True)
        (1): ReLU()
        (2): Linear(in_features=128, out_features=160, bias=True)
      )
    )
    (3): GINConv(
      (apply_func): Sequential(
        (0): Linear(in_features=160, out_features=128, bias=True)
        (1): ReLU()
        (2): Linear(in_features=128, out_features=160, bias=True)
      )
    )
  )
  (predictor): Sequential(
    (0): Linear(in_features=160, out_features=80, bias=True)
    (1): ReLU()
    (2): Linear(in_features=80, out_features=1, bias=True)
  )
)
Epoch: 00 |  Iteration: 00000 | Loss: 0.6931 | Training Accuracy: 53.6133 | AUC Score: 0.5217
Epoch: 00 |  Iteration: 04000 | Loss: 0.6542 | Training Accuracy: 54.9805 | AUC Score: 0.5540
Epoch: 00 |  Iteration: 08000 | Loss: 0.6397 | Training Accuracy: 65.9180 | AUC Score: 0.7155
Epoch: 00 |  Iteration: 12000 | Loss: 0.6301 | Training Accuracy: 63.7695 | AUC Score: 0.6927
…
