…
      ndata_schemes={'protvec': Scheme(shape=(300,), dtype=torch.float32), 'biovec': Scheme(shape=(1024,), dtype=torch.float32), 'alphafold': Scheme(shape=(384,), dtype=torch.float32), 'esm': Scheme(shape=(1280,), dtype=torch.float32), 'concatenated': Scheme(shape=(1580,), dtype=torch.float32)}
      edata_schemes={'weight': Scheme(shape=(), dtype=torch.float32)})
Graph and protein mapping loaded successfully!
Number of nodes in graph: 21435
Data Loading is completed
Total Number of Edges:  10275677
Train Number of Edges:  7192975
Valid Number of Edges:  2055135
Test Number of Edges:  1027567
Graph Splitting is completed
For Feature: concatenated ; flag 1.10a Sage Model
=================================
flag 1.10b Sage Model:
 SAGE(
  (layers): ModuleList(
    (0): SAGEConv(
      (feat_drop): Dropout(p=0.0, inplace=False)
      (fc_neigh): Linear(in_features=1580, out_features=160, bias=False)
      (fc_self): Linear(in_features=1580, out_features=160, bias=True)
    )
    (1): SAGEConv(
      (feat_drop): Dropout(p=0.0, inplace=False)
      (fc_neigh): Linear(in_features=160, out_features=160, bias=False)
      (fc_self): Linear(in_features=160, out_features=160, bias=True)
    )
    (2): SAGEConv(
      (feat_drop): Dropout(p=0.0, inplace=False)
      (fc_neigh): Linear(in_features=160, out_features=160, bias=False)
      (fc_self): Linear(in_features=160, out_features=160, bias=True)
    )
  )
  (predictor): Sequential(
    (0): Linear(in_features=160, out_features=160, bias=True)
    (1): ReLU()
    (2): Linear(in_features=160, out_features=160, bias=True)
    (3): ReLU()
    (4): Linear(in_features=160, out_features=1, bias=True)
  )
  (dropout): Dropout(p=0.2, inplace=False)
)
Epoch: 00 |  Iteration: 00000 | Loss: 0.6933 | Training Accuracy: 51.3672 | AUC Score: 0.4776
Epoch: 00 |  Iteration: 04000 | Loss: 0.5399 | Training Accuracy: 74.5117 | AUC Score: 0.8080
Epoch: 00 |  Iteration: 08000 | Loss: 0.5253 | Training Accuracy: 76.1719 | AUC Score: 0.8342
Epoch: 00 |  Iteration: 12000 | Loss: 0.5178 | Training Accuracy: 74.9023 | AUC Score: 0.8302
…
False Positive: 0.18007438930989414
confusion_matrix: [[0.31992561 0.18007439]
 [0.14566155 0.35433845]]
J   = 0.3485281251733463
MCC = 0.34935655395359083
AUC = 0.7465646443836911
Accuracy using deepdrug method:  = 67.4264%
Precision = 0.6630
Recall = 0.7087
F1 Score = 0.6851
=== === === ===


Epoch: 19 | Final Performance: 00000 | Loss: 0.0000 | Testing Accuracy: 67.4264 | AUC Score: 0.7466


=================================
For Feature: concatenated ; flag 1.10d GIN Model
=================================
flag 1.10b gin Model:
 GIN(
  (layers): ModuleList(
    (0): GINConv(
      (apply_func): Sequential(
        (0): Linear(in_features=1580, out_features=128, bias=True)
        (1): ReLU()
        (2): Linear(in_features=128, out_features=160, bias=True)
      )
    )
    (1): GINConv(
      (apply_func): Sequential(
        (0): Linear(in_features=160, out_features=128, bias=True)
        (1): ReLU()
        (2): Linear(in_features=128, out_features=160, bias=True)
      )
    )
    (2): GINConv(
      (apply_func): Sequential(
        (0): Linear(in_features=160, out_features=128, bias=True)
        (1): ReLU()
        (2): Linear(in_features=128, out_features=160, bias=True)
      )
    )
    (3): GINConv(
      (apply_func): Sequential(
        (0): Linear(in_features=160, out_features=128, bias=True)
        (1): ReLU()
        (2): Linear(in_features=128, out_features=160, bias=True)
      )
    )
  )
  (predictor): Sequential(
    (0): Linear(in_features=160, out_features=80, bias=True)
    (1): ReLU()
    (2): Linear(in_features=80, out_features=1, bias=True)
  )
)
Epoch: 00 |  Iteration: 00000 | Loss: 0.6931 | Training Accuracy: 57.8125 | AUC Score: 0.5934
Epoch: 00 |  Iteration: 04000 | Loss: 0.6620 | Training Accuracy: 56.0547 | AUC Score: 0.5599
Epoch: 00 |  Iteration: 08000 | Loss: 0.6487 | Training Accuracy: 64.8438 | AUC Score: 0.7123
Epoch: 00 |  Iteration: 12000 | Loss: 0.6346 | Training Accuracy: 66.0156 | AUC Score: 0.7239
…
False Positive: 0.00023842727530175647
confusion_matrix: [[4.99761573e-01 2.38427275e-04]
 [4.99191780e-01 8.08219805e-04]]
J   = 0.0011395850586870537
MCC = 0.01762154621820641
AUC = 0.33850444296088666
Accuracy using deepdrug method:  = 50.0570%
Precision = 0.7722
Recall = 0.0016
F1 Score = 0.0032
=== === === ===


Epoch: 19 | Final Performance: 00000 | Loss: 0.0000 | Testing Accuracy: 50.0570 | AUC Score: 0.3385


=================================
For Feature: concatenated ; flag 1.10b GAT Model
=================================
flag 1.10b gat Model:
 GAT(
  (layers): ModuleList(
    (0): GATConv(
      (fc): Linear(in_features=1580, out_features=4096, bias=False)
      (feat_drop): Dropout(p=0.0, inplace=False)
      (attn_drop): Dropout(p=0.0, inplace=False)
      (leaky_relu): LeakyReLU(negative_slope=0.2)
    )
    (1): GATConv(
      (fc): Linear(in_features=4096, out_features=2048, bias=False)
      (feat_drop): Dropout(p=0.0, inplace=False)
      (attn_drop): Dropout(p=0.0, inplace=False)
      (leaky_relu): LeakyReLU(negative_slope=0.2)
    )
    (2): GATConv(
      (fc): Linear(in_features=2048, out_features=160, bias=False)
      (feat_drop): Dropout(p=0.0, inplace=False)
      (attn_drop): Dropout(p=0.0, inplace=False)
      (leaky_relu): LeakyReLU(negative_slope=0.2)
    )
  )
  (predictor): Sequential(
    (0): Linear(in_features=160, out_features=80, bias=True)
    (1): LeakyReLU(negative_slope=0.2)
    (2): Linear(in_features=80, out_features=40, bias=True)
    (3): LeakyReLU(negative_slope=0.2)
    (4): Linear(in_features=40, out_features=1, bias=True)
  )
  (dropout): Dropout(p=0.2, inplace=False)
)
Epoch: 00 |  Iteration: 00000 | Loss: 0.6943 | Training Accuracy: 49.7070 | AUC Score: 0.4827
Epoch: 00 |  Iteration: 04000 | Loss: 0.6094 | Training Accuracy: 69.7266 | AUC Score: 0.7531
Epoch: 00 |  Iteration: 08000 | Loss: 0.5841 | Training Accuracy: 71.2891 | AUC Score: 0.7911
Epoch: 00 |  Iteration: 12000 | Loss: 0.5729 | Training Accuracy: 70.3125 | AUC Score: 0.7746
…
