…
      ndata_schemes={'protvec': Scheme(shape=(300,), dtype=torch.float32), 'biovec': Scheme(shape=(1024,), dtype=torch.float32), 'alphafold': Scheme(shape=(384,), dtype=torch.float32), 'esm': Scheme(shape=(1280,), dtype=torch.float32), 'concatenated': Scheme(shape=(2988,), dtype=torch.float32)}
      edata_schemes={'weight': Scheme(shape=(), dtype=torch.float32)})
Graph and protein mapping loaded successfully!
Number of nodes in graph: 21435
Data Loading is completed
Total Number of Edges:  10275677
Train Number of Edges:  7192975
Valid Number of Edges:  2055135
Test Number of Edges:  1027567
Graph Splitting is completed
For Feature: concatenated ; flag 1.10a Sage Model
=================================
flag 1.10b Sage Model:
 SAGE(
  (layers): ModuleList(
    (0): SAGEConv(
      (feat_drop): Dropout(p=0.0, inplace=False)
      (fc_neigh): Linear(in_features=2988, out_features=160, bias=False)
      (fc_self): Linear(in_features=2988, out_features=160, bias=True)
    )
    (1): SAGEConv(
      (feat_drop): Dropout(p=0.0, inplace=False)
      (fc_neigh): Linear(in_features=160, out_features=160, bias=False)
      (fc_self): Linear(in_features=160, out_features=160, bias=True)
    )
    (2): SAGEConv(
      (feat_drop): Dropout(p=0.0, inplace=False)
      (fc_neigh): Linear(in_features=160, out_features=160, bias=False)
      (fc_self): Linear(in_features=160, out_features=160, bias=True)
    )
  )
  (predictor): Sequential(
    (0): Linear(in_features=160, out_features=160, bias=True)
    (1): ReLU()
    (2): Linear(in_features=160, out_features=160, bias=True)
    (3): ReLU()
    (4): Linear(in_features=160, out_features=1, bias=True)
  )
  (dropout): Dropout(p=0.2, inplace=False)
)
Epoch: 00 |  Iteration: 00000 | Loss: 0.6934 | Training Accuracy: 53.8086 | AUC Score: 0.5195
Epoch: 00 |  Iteration: 04000 | Loss: 0.5827 | Training Accuracy: 71.8750 | AUC Score: 0.7839
Epoch: 00 |  Iteration: 08000 | Loss: 0.5636 | Training Accuracy: 72.2656 | AUC Score: 0.7997
Epoch: 00 |  Iteration: 12000 | Loss: 0.5523 | Training Accuracy: 75.0000 | AUC Score: 0.8153
…
True Negative: 0.39708408308168713
False Positive: 0.10291591691831287
confusion_matrix: [[0.39708408 0.10291592]
 [0.11197713 0.38802287]]
J   = 0.5702139130587105
MCC = 0.5703075715487009
AUC = 0.8681763555235843
Accuracy using deepdrug method:  = 78.5107%
Precision = 0.7904
Recall = 0.7760
F1 Score = 0.7831
=== === === ===


Epoch: 19 | Final Performance: 00000 | Loss: 0.0000 | Testing Accuracy: 78.5107 | AUC Score: 0.8682


=================================
For Feature: concatenated ; flag 1.10b GAT Model
=================================
flag 1.10b gat Model:
 GAT(
  (layers): ModuleList(
    (0): GATConv(
      (fc): Linear(in_features=2988, out_features=4096, bias=False)
      (feat_drop): Dropout(p=0.0, inplace=False)
      (attn_drop): Dropout(p=0.0, inplace=False)
      (leaky_relu): LeakyReLU(negative_slope=0.2)
    )
    (1): GATConv(
      (fc): Linear(in_features=4096, out_features=2048, bias=False)
      (feat_drop): Dropout(p=0.0, inplace=False)
      (attn_drop): Dropout(p=0.0, inplace=False)
      (leaky_relu): LeakyReLU(negative_slope=0.2)
    )
    (2): GATConv(
      (fc): Linear(in_features=2048, out_features=160, bias=False)
      (feat_drop): Dropout(p=0.0, inplace=False)
      (attn_drop): Dropout(p=0.0, inplace=False)
      (leaky_relu): LeakyReLU(negative_slope=0.2)
    )
  )
  (predictor): Sequential(
    (0): Linear(in_features=160, out_features=80, bias=True)
    (1): LeakyReLU(negative_slope=0.2)
    (2): Linear(in_features=80, out_features=40, bias=True)
    (3): LeakyReLU(negative_slope=0.2)
    (4): Linear(in_features=40, out_features=1, bias=True)
  )
  (dropout): Dropout(p=0.2, inplace=False)
)
Epoch: 00 |  Iteration: 00000 | Loss: 0.6938 | Training Accuracy: 51.2695 | AUC Score: 0.5184
Epoch: 00 |  Iteration: 04000 | Loss: 0.6490 | Training Accuracy: 58.3984 | AUC Score: 0.6264
Epoch: 00 |  Iteration: 08000 | Loss: 0.6304 | Training Accuracy: 63.8672 | AUC Score: 0.7023
Epoch: 00 |  Iteration: 12000 | Loss: 0.6188 | Training Accuracy: 68.8477 | AUC Score: 0.7563
…
False Positive: 0.20174061642695804
confusion_matrix: [[0.29825938 0.20174062]
 [0.16345406 0.33654594]]
J   = 0.26961064339356944
MCC = 0.2704045594698943
AUC = 0.6986616034883354
Accuracy using deepdrug method:  = 63.4805%
Precision = 0.6252
Recall = 0.6731
F1 Score = 0.6483
=== === === ===


Epoch: 19 | Final Performance: 00000 | Loss: 0.0000 | Testing Accuracy: 63.4805 | AUC Score: 0.6987


=================================
For Feature: concatenated ; flag 1.10d GIN Model
=================================
flag 1.10b gin Model:
 GIN(
  (layers): ModuleList(
    (0): GINConv(
      (apply_func): Sequential(
        (0): Linear(in_features=2988, out_features=128, bias=True)
        (1): ReLU()
        (2): Linear(in_features=128, out_features=160, bias=True)
      )
    )
    (1): GINConv(
      (apply_func): Sequential(
        (0): Linear(in_features=160, out_features=128, bias=True)
        (1): ReLU()
        (2): Linear(in_features=128, out_features=160, bias=True)
      )
    )
    (2): GINConv(
      (apply_func): Sequential(
        (0): Linear(in_features=160, out_features=128, bias=True)
        (1): ReLU()
        (2): Linear(in_features=128, out_features=160, bias=True)
      )
    )
    (3): GINConv(
      (apply_func): Sequential(
        (0): Linear(in_features=160, out_features=128, bias=True)
        (1): ReLU()
        (2): Linear(in_features=128, out_features=160, bias=True)
      )
    )
  )
  (predictor): Sequential(
    (0): Linear(in_features=160, out_features=80, bias=True)
    (1): ReLU()
    (2): Linear(in_features=80, out_features=1, bias=True)
  )
)
Epoch: 00 |  Iteration: 00000 | Loss: 0.6932 | Training Accuracy: 50.0000 | AUC Score: 0.4172
Epoch: 00 |  Iteration: 04000 | Loss: 0.6331 | Training Accuracy: 64.1602 | AUC Score: 0.6907
Epoch: 00 |  Iteration: 08000 | Loss: 0.6189 | Training Accuracy: 67.3828 | AUC Score: 0.7288
Epoch: 00 |  Iteration: 12000 | Loss: 0.6087 | Training Accuracy: 65.5273 | AUC Score: 0.7273
…
