…
      ndata_schemes={'protvec': Scheme(shape=(300,), dtype=torch.float32), 'biovec': Scheme(shape=(1024,), dtype=torch.float32), 'alphafold': Scheme(shape=(384,), dtype=torch.float32), 'esm': Scheme(shape=(1280,), dtype=torch.float32), 'concatenated': Scheme(shape=(2604,), dtype=torch.float32)}
      edata_schemes={'weight': Scheme(shape=(), dtype=torch.float32)})
Graph and protein mapping loaded successfully!
Number of nodes in graph: 21435
Data Loading is completed
Total Number of Edges:  10275677
Train Number of Edges:  7192975
Valid Number of Edges:  2055135
Test Number of Edges:  1027567
Graph Splitting is completed
For Feature: concatenated ; flag 1.10a Sage Model
=================================
flag 1.10b Sage Model:
 SAGE(
  (layers): ModuleList(
    (0): SAGEConv(
      (feat_drop): Dropout(p=0.0, inplace=False)
      (fc_neigh): Linear(in_features=2604, out_features=160, bias=False)
      (fc_self): Linear(in_features=2604, out_features=160, bias=True)
    )
    (1): SAGEConv(
      (feat_drop): Dropout(p=0.0, inplace=False)
      (fc_neigh): Linear(in_features=160, out_features=160, bias=False)
      (fc_self): Linear(in_features=160, out_features=160, bias=True)
    )
    (2): SAGEConv(
      (feat_drop): Dropout(p=0.0, inplace=False)
      (fc_neigh): Linear(in_features=160, out_features=160, bias=False)
      (fc_self): Linear(in_features=160, out_features=160, bias=True)
    )
  )
  (predictor): Sequential(
    (0): Linear(in_features=160, out_features=160, bias=True)
    (1): ReLU()
    (2): Linear(in_features=160, out_features=160, bias=True)
    (3): ReLU()
    (4): Linear(in_features=160, out_features=1, bias=True)
  )
  (dropout): Dropout(p=0.2, inplace=False)
)
Epoch: 00 |  Iteration: 00000 | Loss: 0.6932 | Training Accuracy: 50.8789 | AUC Score: 0.4921
Epoch: 00 |  Iteration: 04000 | Loss: 0.6454 | Training Accuracy: 65.4297 | AUC Score: 0.7035
Epoch: 00 |  Iteration: 08000 | Loss: 0.6227 | Training Accuracy: 66.5039 | AUC Score: 0.7165
Epoch: 00 |  Iteration: 12000 | Loss: 0.6097 | Training Accuracy: 69.4336 | AUC Score: 0.7631
…
False Positive: 0.12070745751858517
confusion_matrix: [[0.37929254 0.12070746]
 [0.14436723 0.35563277]]
J   = 0.4698506277449548
MCC = 0.47037754323739256
AUC = 0.8140180447474328
Accuracy using deepdrug method:  = 73.4925%
Precision = 0.7466
Recall = 0.7113
F1 Score = 0.7285
=== === === ===


Epoch: 19 | Final Performance: 00000 | Loss: 0.0000 | Testing Accuracy: 73.4925 | AUC Score: 0.8140


=================================
For Feature: concatenated ; flag 1.10d GIN Model
=================================
flag 1.10b gin Model:
 GIN(
  (layers): ModuleList(
    (0): GINConv(
      (apply_func): Sequential(
        (0): Linear(in_features=2604, out_features=128, bias=True)
        (1): ReLU()
        (2): Linear(in_features=128, out_features=160, bias=True)
      )
    )
    (1): GINConv(
      (apply_func): Sequential(
        (0): Linear(in_features=160, out_features=128, bias=True)
        (1): ReLU()
        (2): Linear(in_features=128, out_features=160, bias=True)
      )
    )
    (2): GINConv(
      (apply_func): Sequential(
        (0): Linear(in_features=160, out_features=128, bias=True)
        (1): ReLU()
        (2): Linear(in_features=128, out_features=160, bias=True)
      )
    )
    (3): GINConv(
      (apply_func): Sequential(
        (0): Linear(in_features=160, out_features=128, bias=True)
        (1): ReLU()
        (2): Linear(in_features=128, out_features=160, bias=True)
      )
    )
  )
  (predictor): Sequential(
    (0): Linear(in_features=160, out_features=80, bias=True)
    (1): ReLU()
    (2): Linear(in_features=80, out_features=1, bias=True)
  )
)
Epoch: 00 |  Iteration: 00000 | Loss: 0.6939 | Training Accuracy: 50.6836 | AUC Score: 0.4783
Epoch: 00 |  Iteration: 04000 | Loss: 0.6725 | Training Accuracy: 57.8125 | AUC Score: 0.5742
Epoch: 00 |  Iteration: 08000 | Loss: 0.6603 | Training Accuracy: 59.4727 | AUC Score: 0.6259
Epoch: 00 |  Iteration: 12000 | Loss: 0.6543 | Training Accuracy: 60.7422 | AUC Score: 0.6478
…
True Negative: 0.5
False Positive: 0.0
confusion_matrix: [[5.00000000e-01 0.00000000e+00]
 [4.99994161e-01 5.83903531e-06]]
J   = 1.1678070626963688e-05
MCC = 0.00241641664620257
AUC = 0.30551645037816855
Accuracy using deepdrug method:  = 50.0006%
Precision = 1.0000
Recall = 0.0000
F1 Score = 0.0000
=== === === ===


Epoch: 19 | Final Performance: 00000 | Loss: 0.0000 | Testing Accuracy: 50.0006 | AUC Score: 0.3055


=================================
For Feature: concatenated ; flag 1.10b GAT Model
=================================
flag 1.10b gat Model:
 GAT(
  (layers): ModuleList(
    (0): GATConv(
      (fc): Linear(in_features=2604, out_features=4096, bias=False)
      (feat_drop): Dropout(p=0.0, inplace=False)
      (attn_drop): Dropout(p=0.0, inplace=False)
      (leaky_relu): LeakyReLU(negative_slope=0.2)
    )
    (1): GATConv(
      (fc): Linear(in_features=4096, out_features=2048, bias=False)
      (feat_drop): Dropout(p=0.0, inplace=False)
      (attn_drop): Dropout(p=0.0, inplace=False)
      (leaky_relu): LeakyReLU(negative_slope=0.2)
    )
    (2): GATConv(
      (fc): Linear(in_features=2048, out_features=160, bias=False)
      (feat_drop): Dropout(p=0.0, inplace=False)
      (attn_drop): Dropout(p=0.0, inplace=False)
      (leaky_relu): LeakyReLU(negative_slope=0.2)
    )
  )
  (predictor): Sequential(
    (0): Linear(in_features=160, out_features=80, bias=True)
    (1): LeakyReLU(negative_slope=0.2)
    (2): Linear(in_features=80, out_features=40, bias=True)
    (3): LeakyReLU(negative_slope=0.2)
    (4): Linear(in_features=40, out_features=1, bias=True)
  )
  (dropout): Dropout(p=0.2, inplace=False)
)
Epoch: 00 |  Iteration: 00000 | Loss: 0.6935 | Training Accuracy: 50.0000 | AUC Score: 0.4693
Epoch: 00 |  Iteration: 04000 | Loss: 0.6870 | Training Accuracy: 62.5977 | AUC Score: 0.6608
Epoch: 00 |  Iteration: 08000 | Loss: 0.6687 | Training Accuracy: 66.5039 | AUC Score: 0.7230
Epoch: 00 |  Iteration: 12000 | Loss: 0.6525 | Training Accuracy: 65.7227 | AUC Score: 0.7036
…
