…
      ndata_schemes={'protvec': Scheme(shape=(300,), dtype=torch.float32), 'biovec': Scheme(shape=(1024,), dtype=torch.float32), 'alphafold': Scheme(shape=(384,), dtype=torch.float32), 'esm': Scheme(shape=(1280,), dtype=torch.float32), 'concatenated': Scheme(shape=(2304,), dtype=torch.float32)}
      edata_schemes={'weight': Scheme(shape=(), dtype=torch.float32)})
Graph and protein mapping loaded successfully!
Number of nodes in graph: 21435
Data Loading is completed
Total Number of Edges:  10275677
Train Number of Edges:  7192975
Valid Number of Edges:  2055135
Test Number of Edges:  1027567
Graph Splitting is completed
For Feature: concatenated ; flag 1.10a Sage Model
=================================
flag 1.10b Sage Model:
 SAGE(
  (layers): ModuleList(
    (0): SAGEConv(
      (feat_drop): Dropout(p=0.0, inplace=False)
      (fc_neigh): Linear(in_features=2304, out_features=160, bias=False)
      (fc_self): Linear(in_features=2304, out_features=160, bias=True)
    )
    (1): SAGEConv(
      (feat_drop): Dropout(p=0.0, inplace=False)
      (fc_neigh): Linear(in_features=160, out_features=160, bias=False)
      (fc_self): Linear(in_features=160, out_features=160, bias=True)
    )
    (2): SAGEConv(
      (feat_drop): Dropout(p=0.0, inplace=False)
      (fc_neigh): Linear(in_features=160, out_features=160, bias=False)
      (fc_self): Linear(in_features=160, out_features=160, bias=True)
    )
  )
  (predictor): Sequential(
    (0): Linear(in_features=160, out_features=160, bias=True)
    (1): ReLU()
    (2): Linear(in_features=160, out_features=160, bias=True)
    (3): ReLU()
    (4): Linear(in_features=160, out_features=1, bias=True)
  )
  (dropout): Dropout(p=0.2, inplace=False)
)
Epoch: 00 |  Iteration: 00000 | Loss: 0.6931 | Training Accuracy: 51.3672 | AUC Score: 0.4865
Epoch: 00 |  Iteration: 04000 | Loss: 0.6319 | Training Accuracy: 68.1641 | AUC Score: 0.7432
Epoch: 00 |  Iteration: 08000 | Loss: 0.6067 | Training Accuracy: 69.4336 | AUC Score: 0.7607
Epoch: 00 |  Iteration: 12000 | Loss: 0.5942 | Training Accuracy: 70.9961 | AUC Score: 0.7702
…
False Positive: 0.12167187151786696
confusion_matrix: [[0.37832813 0.12167187]
 [0.14039668 0.35960332]]
J   = 0.475862887772768
MCC = 0.4761969319628157
AUC = 0.8172924902534588
Accuracy using deepdrug method:  = 73.7931%
Precision = 0.7472
Recall = 0.7192
F1 Score = 0.7329
=== === === ===


Epoch: 19 | Final Performance: 00000 | Loss: 0.0000 | Testing Accuracy: 73.7931 | AUC Score: 0.8173


=================================
For Feature: concatenated ; flag 1.10d GIN Model
=================================
flag 1.10b gin Model:
 GIN(
  (layers): ModuleList(
    (0): GINConv(
      (apply_func): Sequential(
        (0): Linear(in_features=2304, out_features=128, bias=True)
        (1): ReLU()
        (2): Linear(in_features=128, out_features=160, bias=True)
      )
    )
    (1): GINConv(
      (apply_func): Sequential(
        (0): Linear(in_features=160, out_features=128, bias=True)
        (1): ReLU()
        (2): Linear(in_features=128, out_features=160, bias=True)
      )
    )
    (2): GINConv(
      (apply_func): Sequential(
        (0): Linear(in_features=160, out_features=128, bias=True)
        (1): ReLU()
        (2): Linear(in_features=128, out_features=160, bias=True)
      )
    )
    (3): GINConv(
      (apply_func): Sequential(
        (0): Linear(in_features=160, out_features=128, bias=True)
        (1): ReLU()
        (2): Linear(in_features=128, out_features=160, bias=True)
      )
    )
  )
  (predictor): Sequential(
    (0): Linear(in_features=160, out_features=80, bias=True)
    (1): ReLU()
    (2): Linear(in_features=80, out_features=1, bias=True)
  )
)
Epoch: 00 |  Iteration: 00000 | Loss: 0.6932 | Training Accuracy: 50.0000 | AUC Score: 0.4149
Epoch: 00 |  Iteration: 04000 | Loss: 0.6582 | Training Accuracy: 63.4766 | AUC Score: 0.6804
Epoch: 00 |  Iteration: 08000 | Loss: 0.6424 | Training Accuracy: 65.9180 | AUC Score: 0.7087
Epoch: 00 |  Iteration: 12000 | Loss: 0.6341 | Training Accuracy: 63.4766 | AUC Score: 0.6901
…
False Positive: 2.9195176567562016e-06
confusion_matrix: [[4.99997080e-01 2.91951766e-06]
 [4.99945989e-01 5.40110766e-05]]
J   = 0.0001021831179865984
MCC = 0.006771558874624741
AUC = 0.3131154499395099
Accuracy using deepdrug method:  = 50.0051%
Precision = 0.9487
Recall = 0.0001
F1 Score = 0.0002
=== === === ===


Epoch: 19 | Final Performance: 00000 | Loss: 0.0000 | Testing Accuracy: 50.0051 | AUC Score: 0.3131


=================================
For Feature: concatenated ; flag 1.10b GAT Model
=================================
flag 1.10b gat Model:
 GAT(
  (layers): ModuleList(
    (0): GATConv(
      (fc): Linear(in_features=2304, out_features=4096, bias=False)
      (feat_drop): Dropout(p=0.0, inplace=False)
      (attn_drop): Dropout(p=0.0, inplace=False)
      (leaky_relu): LeakyReLU(negative_slope=0.2)
    )
    (1): GATConv(
      (fc): Linear(in_features=4096, out_features=2048, bias=False)
      (feat_drop): Dropout(p=0.0, inplace=False)
      (attn_drop): Dropout(p=0.0, inplace=False)
      (leaky_relu): LeakyReLU(negative_slope=0.2)
    )
    (2): GATConv(
      (fc): Linear(in_features=2048, out_features=160, bias=False)
      (feat_drop): Dropout(p=0.0, inplace=False)
      (attn_drop): Dropout(p=0.0, inplace=False)
      (leaky_relu): LeakyReLU(negative_slope=0.2)
    )
  )
  (predictor): Sequential(
    (0): Linear(in_features=160, out_features=80, bias=True)
    (1): LeakyReLU(negative_slope=0.2)
    (2): Linear(in_features=80, out_features=40, bias=True)
    (3): LeakyReLU(negative_slope=0.2)
    (4): Linear(in_features=40, out_features=1, bias=True)
  )
  (dropout): Dropout(p=0.2, inplace=False)
)
Epoch: 00 |  Iteration: 00000 | Loss: 0.6938 | Training Accuracy: 51.3672 | AUC Score: 0.4934
Epoch: 00 |  Iteration: 04000 | Loss: 0.6830 | Training Accuracy: 62.8906 | AUC Score: 0.6707
Epoch: 00 |  Iteration: 08000 | Loss: 0.6585 | Training Accuracy: 66.7969 | AUC Score: 0.7241
Epoch: 00 |  Iteration: 12000 | Loss: 0.6434 | Training Accuracy: 64.8438 | AUC Score: 0.7062
…
