…
      ndata_schemes={'protvec': Scheme(shape=(300,), dtype=torch.float32), 'biovec': Scheme(shape=(1024,), dtype=torch.float32), 'alphafold': Scheme(shape=(384,), dtype=torch.float32), 'esm': Scheme(shape=(1280,), dtype=torch.float32), 'concatenated': Scheme(shape=(2604,), dtype=torch.float32)}
      edata_schemes={'weight': Scheme(shape=(), dtype=torch.float32)})
Graph and protein mapping loaded successfully!
Number of nodes in graph: 21435
Data Loading is completed
Total Number of Edges:  10275677
Train Number of Edges:  7192975
Valid Number of Edges:  2055135
Test Number of Edges:  1027567
Graph Splitting is completed
For Feature: concatenated ; flag 1.10a Sage Model
=================================
flag 1.10b Sage Model:
 SAGE(
  (layers): ModuleList(
    (0): SAGEConv(
      (feat_drop): Dropout(p=0.0, inplace=False)
      (fc_neigh): Linear(in_features=2604, out_features=160, bias=False)
      (fc_self): Linear(in_features=2604, out_features=160, bias=True)
    )
    (1): SAGEConv(
      (feat_drop): Dropout(p=0.0, inplace=False)
      (fc_neigh): Linear(in_features=160, out_features=160, bias=False)
      (fc_self): Linear(in_features=160, out_features=160, bias=True)
    )
    (2): SAGEConv(
      (feat_drop): Dropout(p=0.0, inplace=False)
      (fc_neigh): Linear(in_features=160, out_features=160, bias=False)
      (fc_self): Linear(in_features=160, out_features=160, bias=True)
    )
  )
  (predictor): Sequential(
    (0): Linear(in_features=160, out_features=160, bias=True)
    (1): ReLU()
    (2): Linear(in_features=160, out_features=160, bias=True)
    (3): ReLU()
    (4): Linear(in_features=160, out_features=1, bias=True)
  )
  (dropout): Dropout(p=0.2, inplace=False)
)
Epoch: 00 |  Iteration: 00000 | Loss: 0.6933 | Training Accuracy: 51.5625 | AUC Score: 0.4881
Epoch: 00 |  Iteration: 04000 | Loss: 0.5302 | Training Accuracy: 79.1016 | AUC Score: 0.8531
Epoch: 00 |  Iteration: 08000 | Loss: 0.5173 | Training Accuracy: 75.7812 | AUC Score: 0.8394
Epoch: 00 |  Iteration: 12000 | Loss: 0.5105 | Training Accuracy: 73.5352 | AUC Score: 0.8255
…
False Positive: 0.18809868358948856
confusion_matrix: [[0.31190132 0.18809868]
 [0.13474061 0.36525939]]
J   = 0.3543214213769028
MCC = 0.3563563851429318
AUC = 0.7491440924888845
Accuracy using deepdrug method:  = 67.7161%
Precision = 0.6601
Recall = 0.7305
F1 Score = 0.6935
=== === === ===


Epoch: 19 | Final Performance: 00000 | Loss: 0.0000 | Testing Accuracy: 67.7161 | AUC Score: 0.7491


=================================
For Feature: concatenated ; flag 1.10d GIN Model
=================================
flag 1.10b gin Model:
 GIN(
  (layers): ModuleList(
    (0): GINConv(
      (apply_func): Sequential(
        (0): Linear(in_features=2604, out_features=128, bias=True)
        (1): ReLU()
        (2): Linear(in_features=128, out_features=160, bias=True)
      )
    )
    (1): GINConv(
      (apply_func): Sequential(
        (0): Linear(in_features=160, out_features=128, bias=True)
        (1): ReLU()
        (2): Linear(in_features=128, out_features=160, bias=True)
      )
    )
    (2): GINConv(
      (apply_func): Sequential(
        (0): Linear(in_features=160, out_features=128, bias=True)
        (1): ReLU()
        (2): Linear(in_features=128, out_features=160, bias=True)
      )
    )
    (3): GINConv(
      (apply_func): Sequential(
        (0): Linear(in_features=160, out_features=128, bias=True)
        (1): ReLU()
        (2): Linear(in_features=128, out_features=160, bias=True)
      )
    )
  )
  (predictor): Sequential(
    (0): Linear(in_features=160, out_features=80, bias=True)
    (1): ReLU()
    (2): Linear(in_features=80, out_features=1, bias=True)
  )
)
Epoch: 00 |  Iteration: 00000 | Loss: 0.6939 | Training Accuracy: 50.9766 | AUC Score: 0.4770
Epoch: 00 |  Iteration: 04000 | Loss: 0.6768 | Training Accuracy: 61.0352 | AUC Score: 0.6203
Epoch: 00 |  Iteration: 08000 | Loss: 0.6406 | Training Accuracy: 67.2852 | AUC Score: 0.7342
Epoch: 00 |  Iteration: 12000 | Loss: 0.6235 | Training Accuracy: 64.4531 | AUC Score: 0.7142
…
True Negative: 0.49784490938303777
False Positive: 0.002155090616962203
confusion_matrix: [[0.49784491 0.00215509]
 [0.48577222 0.01422778]]
J   = 0.02414538419392609
MCC = 0.09510340071998645
AUC = 0.3409131075557707
Accuracy using deepdrug method:  = 51.2073%
Precision = 0.8685
Recall = 0.0285
F1 Score = 0.0551
=== === === ===


Epoch: 19 | Final Performance: 00000 | Loss: 0.0000 | Testing Accuracy: 51.2073 | AUC Score: 0.3409


=================================
For Feature: concatenated ; flag 1.10b GAT Model
=================================
flag 1.10b gat Model:
 GAT(
  (layers): ModuleList(
    (0): GATConv(
      (fc): Linear(in_features=2604, out_features=4096, bias=False)
      (feat_drop): Dropout(p=0.0, inplace=False)
      (attn_drop): Dropout(p=0.0, inplace=False)
      (leaky_relu): LeakyReLU(negative_slope=0.2)
    )
    (1): GATConv(
      (fc): Linear(in_features=4096, out_features=2048, bias=False)
      (feat_drop): Dropout(p=0.0, inplace=False)
      (attn_drop): Dropout(p=0.0, inplace=False)
      (leaky_relu): LeakyReLU(negative_slope=0.2)
    )
    (2): GATConv(
      (fc): Linear(in_features=2048, out_features=160, bias=False)
      (feat_drop): Dropout(p=0.0, inplace=False)
      (attn_drop): Dropout(p=0.0, inplace=False)
      (leaky_relu): LeakyReLU(negative_slope=0.2)
    )
  )
  (predictor): Sequential(
    (0): Linear(in_features=160, out_features=80, bias=True)
    (1): LeakyReLU(negative_slope=0.2)
    (2): Linear(in_features=80, out_features=40, bias=True)
    (3): LeakyReLU(negative_slope=0.2)
    (4): Linear(in_features=40, out_features=1, bias=True)
  )
  (dropout): Dropout(p=0.2, inplace=False)
)
Epoch: 00 |  Iteration: 00000 | Loss: 0.6938 | Training Accuracy: 52.9297 | AUC Score: 0.5302
Epoch: 00 |  Iteration: 04000 | Loss: 0.5882 | Training Accuracy: 70.7031 | AUC Score: 0.7700
Epoch: 00 |  Iteration: 08000 | Loss: 0.5699 | Training Accuracy: 72.3633 | AUC Score: 0.7988
Epoch: 00 |  Iteration: 12000 | Loss: 0.5620 | Training Accuracy: 70.5078 | AUC Score: 0.7776
…
