…
      ndata_schemes={'protvec': Scheme(shape=(300,), dtype=torch.float32), 'biovec': Scheme(shape=(1024,), dtype=torch.float32), 'alphafold': Scheme(shape=(384,), dtype=torch.float32), 'esm': Scheme(shape=(1280,), dtype=torch.float32), 'concatenated': Scheme(shape=(1708,), dtype=torch.float32)}
      edata_schemes={'weight': Scheme(shape=(), dtype=torch.float32)})
Graph and protein mapping loaded successfully!
Number of nodes in graph: 21435
Data Loading is completed
Total Number of Edges:  10275677
Train Number of Edges:  7192975
Valid Number of Edges:  2055135
Test Number of Edges:  1027567
Graph Splitting is completed
For Feature: concatenated ; flag 1.10a Sage Model
=================================
flag 1.10b Sage Model:
 SAGE(
  (layers): ModuleList(
    (0): SAGEConv(
      (feat_drop): Dropout(p=0.0, inplace=False)
      (fc_neigh): Linear(in_features=1708, out_features=160, bias=False)
      (fc_self): Linear(in_features=1708, out_features=160, bias=True)
    )
    (1): SAGEConv(
      (feat_drop): Dropout(p=0.0, inplace=False)
      (fc_neigh): Linear(in_features=160, out_features=160, bias=False)
      (fc_self): Linear(in_features=160, out_features=160, bias=True)
    )
    (2): SAGEConv(
      (feat_drop): Dropout(p=0.0, inplace=False)
      (fc_neigh): Linear(in_features=160, out_features=160, bias=False)
      (fc_self): Linear(in_features=160, out_features=160, bias=True)
    )
  )
  (predictor): Sequential(
    (0): Linear(in_features=160, out_features=160, bias=True)
    (1): ReLU()
    (2): Linear(in_features=160, out_features=160, bias=True)
    (3): ReLU()
    (4): Linear(in_features=160, out_features=1, bias=True)
  )
  (dropout): Dropout(p=0.2, inplace=False)
)
Epoch: 00 |  Iteration: 00000 | Loss: 0.6934 | Training Accuracy: 51.8555 | AUC Score: 0.5100
Epoch: 00 |  Iteration: 04000 | Loss: 0.6468 | Training Accuracy: 64.9414 | AUC Score: 0.7120
Epoch: 00 |  Iteration: 08000 | Loss: 0.6230 | Training Accuracy: 68.5547 | AUC Score: 0.7537
Epoch: 00 |  Iteration: 12000 | Loss: 0.6098 | Training Accuracy: 68.6523 | AUC Score: 0.7499
…
False Positive: 0.13952520857520725
confusion_matrix: [[0.36047479 0.13952521]
 [0.14542215 0.35457785]]
J   = 0.43010528753842814
MCC = 0.4301352035277102
AUC = 0.7931817641067397
Accuracy using deepdrug method:  = 71.5053%
Precision = 0.7176
Recall = 0.7092
F1 Score = 0.7134
=== === === ===


Epoch: 19 | Final Performance: 00000 | Loss: 0.0000 | Testing Accuracy: 71.5053 | AUC Score: 0.7932


=================================
For Feature: concatenated ; flag 1.10d GIN Model
=================================
flag 1.10b gin Model:
 GIN(
  (layers): ModuleList(
    (0): GINConv(
      (apply_func): Sequential(
        (0): Linear(in_features=1708, out_features=128, bias=True)
        (1): ReLU()
        (2): Linear(in_features=128, out_features=160, bias=True)
      )
    )
    (1): GINConv(
      (apply_func): Sequential(
        (0): Linear(in_features=160, out_features=128, bias=True)
        (1): ReLU()
        (2): Linear(in_features=128, out_features=160, bias=True)
      )
    )
    (2): GINConv(
      (apply_func): Sequential(
        (0): Linear(in_features=160, out_features=128, bias=True)
        (1): ReLU()
        (2): Linear(in_features=128, out_features=160, bias=True)
      )
    )
    (3): GINConv(
      (apply_func): Sequential(
        (0): Linear(in_features=160, out_features=128, bias=True)
        (1): ReLU()
        (2): Linear(in_features=128, out_features=160, bias=True)
      )
    )
  )
  (predictor): Sequential(
    (0): Linear(in_features=160, out_features=80, bias=True)
    (1): ReLU()
    (2): Linear(in_features=80, out_features=1, bias=True)
  )
)
Epoch: 00 |  Iteration: 00000 | Loss: 0.6933 | Training Accuracy: 50.0000 | AUC Score: 0.4424
Epoch: 00 |  Iteration: 04000 | Loss: 0.6703 | Training Accuracy: 57.2266 | AUC Score: 0.5789
Epoch: 00 |  Iteration: 08000 | Loss: 0.6588 | Training Accuracy: 58.1055 | AUC Score: 0.6153
Epoch: 00 |  Iteration: 12000 | Loss: 0.6536 | Training Accuracy: 60.7422 | AUC Score: 0.6496
…
True Negative: 0.49618662335400027
False Positive: 0.0038133766459997258
confusion_matrix: [[0.49618662 0.00381338]
 [0.48192137 0.01807863]]
J   = 0.028530499714373825
MCC = 0.09748621908004752
AUC = 0.3433003042861734
Accuracy using deepdrug method:  = 51.4265%
Precision = 0.8258
Recall = 0.0362
F1 Score = 0.0693
=== === === ===


Epoch: 19 | Final Performance: 00000 | Loss: 0.0000 | Testing Accuracy: 51.4265 | AUC Score: 0.3433


=================================
For Feature: concatenated ; flag 1.10b GAT Model
=================================
flag 1.10b gat Model:
 GAT(
  (layers): ModuleList(
    (0): GATConv(
      (fc): Linear(in_features=1708, out_features=4096, bias=False)
      (feat_drop): Dropout(p=0.0, inplace=False)
      (attn_drop): Dropout(p=0.0, inplace=False)
      (leaky_relu): LeakyReLU(negative_slope=0.2)
    )
    (1): GATConv(
      (fc): Linear(in_features=4096, out_features=2048, bias=False)
      (feat_drop): Dropout(p=0.0, inplace=False)
      (attn_drop): Dropout(p=0.0, inplace=False)
      (leaky_relu): LeakyReLU(negative_slope=0.2)
    )
    (2): GATConv(
      (fc): Linear(in_features=2048, out_features=160, bias=False)
      (feat_drop): Dropout(p=0.0, inplace=False)
      (attn_drop): Dropout(p=0.0, inplace=False)
      (leaky_relu): LeakyReLU(negative_slope=0.2)
    )
  )
  (predictor): Sequential(
    (0): Linear(in_features=160, out_features=80, bias=True)
    (1): LeakyReLU(negative_slope=0.2)
    (2): Linear(in_features=80, out_features=40, bias=True)
    (3): LeakyReLU(negative_slope=0.2)
    (4): Linear(in_features=40, out_features=1, bias=True)
  )
  (dropout): Dropout(p=0.2, inplace=False)
)
Epoch: 00 |  Iteration: 00000 | Loss: 0.6936 | Training Accuracy: 52.9297 | AUC Score: 0.5287
Epoch: 00 |  Iteration: 04000 | Loss: 0.6812 | Training Accuracy: 55.3711 | AUC Score: 0.5390
Epoch: 00 |  Iteration: 08000 | Loss: 0.6679 | Training Accuracy: 59.1797 | AUC Score: 0.6206
Epoch: 00 |  Iteration: 12000 | Loss: 0.6620 | Training Accuracy: 57.7148 | AUC Score: 0.6042
…
