…
      ndata_schemes={'protvec': Scheme(shape=(300,), dtype=torch.float32), 'biovec': Scheme(shape=(1024,), dtype=torch.float32), 'alphafold': Scheme(shape=(384,), dtype=torch.float32), 'esm': Scheme(shape=(1280,), dtype=torch.float32), 'concatenated': Scheme(shape=(1964,), dtype=torch.float32)}
      edata_schemes={'weight': Scheme(shape=(), dtype=torch.float32)})
Graph and protein mapping loaded successfully!
Number of nodes in graph: 21435
Data Loading is completed
Total Number of Edges:  10275677
Train Number of Edges:  7192975
Valid Number of Edges:  2055135
Test Number of Edges:  1027567
Graph Splitting is completed
For Feature: concatenated ; flag 1.10a Sage Model
=================================
flag 1.10b Sage Model:
 SAGE(
  (layers): ModuleList(
    (0): SAGEConv(
      (feat_drop): Dropout(p=0.0, inplace=False)
      (fc_neigh): Linear(in_features=1964, out_features=160, bias=False)
      (fc_self): Linear(in_features=1964, out_features=160, bias=True)
    )
    (1): SAGEConv(
      (feat_drop): Dropout(p=0.0, inplace=False)
      (fc_neigh): Linear(in_features=160, out_features=160, bias=False)
      (fc_self): Linear(in_features=160, out_features=160, bias=True)
    )
    (2): SAGEConv(
      (feat_drop): Dropout(p=0.0, inplace=False)
      (fc_neigh): Linear(in_features=160, out_features=160, bias=False)
      (fc_self): Linear(in_features=160, out_features=160, bias=True)
    )
  )
  (predictor): Sequential(
    (0): Linear(in_features=160, out_features=160, bias=True)
    (1): ReLU()
    (2): Linear(in_features=160, out_features=160, bias=True)
    (3): ReLU()
    (4): Linear(in_features=160, out_features=1, bias=True)
  )
  (dropout): Dropout(p=0.2, inplace=False)
)
Epoch: 00 |  Iteration: 00000 | Loss: 0.6935 | Training Accuracy: 52.0508 | AUC Score: 0.4975
Epoch: 00 |  Iteration: 04000 | Loss: 0.6604 | Training Accuracy: 63.0859 | AUC Score: 0.6769
Epoch: 00 |  Iteration: 08000 | Loss: 0.6465 | Training Accuracy: 63.1836 | AUC Score: 0.6807
Epoch: 00 |  Iteration: 12000 | Loss: 0.6358 | Training Accuracy: 67.8711 | AUC Score: 0.7287
…
False Positive: 0.12730118814636904
confusion_matrix: [[0.37269881 0.12730119]
 [0.14372688 0.35627312]]
J   = 0.4579438615681508
MCC = 0.4581911713719681
AUC = 0.8080239316587046
Accuracy using deepdrug method:  = 72.8972%
Precision = 0.7367
Recall = 0.7125
F1 Score = 0.7244
=== === === ===


Epoch: 19 | Final Performance: 00000 | Loss: 0.0000 | Testing Accuracy: 72.8972 | AUC Score: 0.8080


=================================
For Feature: concatenated ; flag 1.10d GIN Model
=================================
flag 1.10b gin Model:
 GIN(
  (layers): ModuleList(
    (0): GINConv(
      (apply_func): Sequential(
        (0): Linear(in_features=1964, out_features=128, bias=True)
        (1): ReLU()
        (2): Linear(in_features=128, out_features=160, bias=True)
      )
    )
    (1): GINConv(
      (apply_func): Sequential(
        (0): Linear(in_features=160, out_features=128, bias=True)
        (1): ReLU()
        (2): Linear(in_features=128, out_features=160, bias=True)
      )
    )
    (2): GINConv(
      (apply_func): Sequential(
        (0): Linear(in_features=160, out_features=128, bias=True)
        (1): ReLU()
        (2): Linear(in_features=128, out_features=160, bias=True)
      )
    )
    (3): GINConv(
      (apply_func): Sequential(
        (0): Linear(in_features=160, out_features=128, bias=True)
        (1): ReLU()
        (2): Linear(in_features=128, out_features=160, bias=True)
      )
    )
  )
  (predictor): Sequential(
    (0): Linear(in_features=160, out_features=80, bias=True)
    (1): ReLU()
    (2): Linear(in_features=80, out_features=1, bias=True)
  )
)
Epoch: 00 |  Iteration: 00000 | Loss: 0.6943 | Training Accuracy: 50.0000 | AUC Score: 0.4168
Epoch: 00 |  Iteration: 04000 | Loss: 0.6640 | Training Accuracy: 63.2812 | AUC Score: 0.6809
Epoch: 00 |  Iteration: 08000 | Loss: 0.6446 | Training Accuracy: 64.9414 | AUC Score: 0.6982
Epoch: 00 |  Iteration: 12000 | Loss: 0.6365 | Training Accuracy: 62.7930 | AUC Score: 0.6808
…
True Negative: 0.4967627415049335
False Positive: 0.003237258495066502
confusion_matrix: [[0.49676274 0.00323726]
 [0.48796915 0.01203085]]
J   = 0.01758717436429924
MCC = 0.07171574492951975
AUC = 0.3404485062282573
Accuracy using deepdrug method:  = 50.8794%
Precision = 0.7880
Recall = 0.0241
F1 Score = 0.0467
=== === === ===


Epoch: 19 | Final Performance: 00000 | Loss: 0.0000 | Testing Accuracy: 50.8794 | AUC Score: 0.3404


=================================
For Feature: concatenated ; flag 1.10b GAT Model
=================================
flag 1.10b gat Model:
 GAT(
  (layers): ModuleList(
    (0): GATConv(
      (fc): Linear(in_features=1964, out_features=4096, bias=False)
      (feat_drop): Dropout(p=0.0, inplace=False)
      (attn_drop): Dropout(p=0.0, inplace=False)
      (leaky_relu): LeakyReLU(negative_slope=0.2)
    )
    (1): GATConv(
      (fc): Linear(in_features=4096, out_features=2048, bias=False)
      (feat_drop): Dropout(p=0.0, inplace=False)
      (attn_drop): Dropout(p=0.0, inplace=False)
      (leaky_relu): LeakyReLU(negative_slope=0.2)
    )
    (2): GATConv(
      (fc): Linear(in_features=2048, out_features=160, bias=False)
      (feat_drop): Dropout(p=0.0, inplace=False)
      (attn_drop): Dropout(p=0.0, inplace=False)
      (leaky_relu): LeakyReLU(negative_slope=0.2)
    )
  )
  (predictor): Sequential(
    (0): Linear(in_features=160, out_features=80, bias=True)
    (1): LeakyReLU(negative_slope=0.2)
    (2): Linear(in_features=80, out_features=40, bias=True)
    (3): LeakyReLU(negative_slope=0.2)
    (4): Linear(in_features=40, out_features=1, bias=True)
  )
  (dropout): Dropout(p=0.2, inplace=False)
)
Epoch: 00 |  Iteration: 00000 | Loss: 0.6931 | Training Accuracy: 52.8320 | AUC Score: 0.5053
Epoch: 00 |  Iteration: 04000 | Loss: 0.6775 | Training Accuracy: 55.5664 | AUC Score: 0.5584
Epoch: 00 |  Iteration: 08000 | Loss: 0.6635 | Training Accuracy: 57.8125 | AUC Score: 0.6017
Epoch: 00 |  Iteration: 12000 | Loss: 0.6571 | Training Accuracy: 58.6914 | AUC Score: 0.6065
…
