…
      ndata_schemes={'protvec': Scheme(shape=(300,), dtype=torch.float32), 'biovec': Scheme(shape=(1024,), dtype=torch.float32), 'alphafold': Scheme(shape=(384,), dtype=torch.float32), 'esm': Scheme(shape=(1280,), dtype=torch.float32), 'concatenated': Scheme(shape=(1408,), dtype=torch.float32)}
      edata_schemes={'weight': Scheme(shape=(), dtype=torch.float32)})
Graph and protein mapping loaded successfully!
Number of nodes in graph: 21435
Data Loading is completed
Total Number of Edges:  10275677
Train Number of Edges:  7192975
Valid Number of Edges:  2055135
Test Number of Edges:  1027567
Graph Splitting is completed
For Feature: concatenated ; flag 1.10a Sage Model
=================================
flag 1.10b Sage Model:
 SAGE(
  (layers): ModuleList(
    (0): SAGEConv(
      (feat_drop): Dropout(p=0.0, inplace=False)
      (fc_neigh): Linear(in_features=1408, out_features=160, bias=False)
      (fc_self): Linear(in_features=1408, out_features=160, bias=True)
    )
    (1): SAGEConv(
      (feat_drop): Dropout(p=0.0, inplace=False)
      (fc_neigh): Linear(in_features=160, out_features=160, bias=False)
      (fc_self): Linear(in_features=160, out_features=160, bias=True)
    )
    (2): SAGEConv(
      (feat_drop): Dropout(p=0.0, inplace=False)
      (fc_neigh): Linear(in_features=160, out_features=160, bias=False)
      (fc_self): Linear(in_features=160, out_features=160, bias=True)
    )
  )
  (predictor): Sequential(
    (0): Linear(in_features=160, out_features=160, bias=True)
    (1): ReLU()
    (2): Linear(in_features=160, out_features=160, bias=True)
    (3): ReLU()
    (4): Linear(in_features=160, out_features=1, bias=True)
  )
  (dropout): Dropout(p=0.2, inplace=False)
)
Epoch: 00 |  Iteration: 00000 | Loss: 0.6934 | Training Accuracy: 52.9297 | AUC Score: 0.5295
Epoch: 00 |  Iteration: 04000 | Loss: 0.6428 | Training Accuracy: 66.5039 | AUC Score: 0.7208
Epoch: 00 |  Iteration: 08000 | Loss: 0.6174 | Training Accuracy: 67.0898 | AUC Score: 0.7298
Epoch: 00 |  Iteration: 12000 | Loss: 0.6043 | Training Accuracy: 69.3359 | AUC Score: 0.7496
…
False Positive: 0.1341970888516272
confusion_matrix: [[0.36580291 0.13419709]
 [0.1490696  0.3509304 ]]
J   = 0.4334666255339068
MCC = 0.4336585111743726
AUC = 0.795466729746061
Accuracy using deepdrug method:  = 71.6733%
Precision = 0.7234
Recall = 0.7019
F1 Score = 0.7125
=== === === ===


Epoch: 19 | Final Performance: 00000 | Loss: 0.0000 | Testing Accuracy: 71.6733 | AUC Score: 0.7955


=================================
For Feature: concatenated ; flag 1.10d GIN Model
=================================
flag 1.10b gin Model:
 GIN(
  (layers): ModuleList(
    (0): GINConv(
      (apply_func): Sequential(
        (0): Linear(in_features=1408, out_features=128, bias=True)
        (1): ReLU()
        (2): Linear(in_features=128, out_features=160, bias=True)
      )
    )
    (1): GINConv(
      (apply_func): Sequential(
        (0): Linear(in_features=160, out_features=128, bias=True)
        (1): ReLU()
        (2): Linear(in_features=128, out_features=160, bias=True)
      )
    )
    (2): GINConv(
      (apply_func): Sequential(
        (0): Linear(in_features=160, out_features=128, bias=True)
        (1): ReLU()
        (2): Linear(in_features=128, out_features=160, bias=True)
      )
    )
    (3): GINConv(
      (apply_func): Sequential(
        (0): Linear(in_features=160, out_features=128, bias=True)
        (1): ReLU()
        (2): Linear(in_features=128, out_features=160, bias=True)
      )
    )
  )
  (predictor): Sequential(
    (0): Linear(in_features=160, out_features=80, bias=True)
    (1): ReLU()
    (2): Linear(in_features=80, out_features=1, bias=True)
  )
)
Epoch: 00 |  Iteration: 00000 | Loss: 0.6931 | Training Accuracy: 54.8828 | AUC Score: 0.5561
Epoch: 00 |  Iteration: 04000 | Loss: 0.6594 | Training Accuracy: 63.5742 | AUC Score: 0.6790
Epoch: 00 |  Iteration: 08000 | Loss: 0.6431 | Training Accuracy: 64.8438 | AUC Score: 0.7050
Epoch: 00 |  Iteration: 12000 | Loss: 0.6348 | Training Accuracy: 63.2812 | AUC Score: 0.6878
…
False Positive: 0.00032649939128056855
confusion_matrix: [[4.99673501e-01 3.26499391e-04]
 [4.96611413e-01 3.38858683e-03]]
J   = 0.00612417487132233
MCC = 0.05033167248060505
AUC = 0.34054963945812666
Accuracy using deepdrug method:  = 50.3062%
Precision = 0.9121
Recall = 0.0068
F1 Score = 0.0135
=== === === ===


Epoch: 19 | Final Performance: 00000 | Loss: 0.0000 | Testing Accuracy: 50.3062 | AUC Score: 0.3405


=================================
For Feature: concatenated ; flag 1.10b GAT Model
=================================
flag 1.10b gat Model:
 GAT(
  (layers): ModuleList(
    (0): GATConv(
      (fc): Linear(in_features=1408, out_features=4096, bias=False)
      (feat_drop): Dropout(p=0.0, inplace=False)
      (attn_drop): Dropout(p=0.0, inplace=False)
      (leaky_relu): LeakyReLU(negative_slope=0.2)
    )
    (1): GATConv(
      (fc): Linear(in_features=4096, out_features=2048, bias=False)
      (feat_drop): Dropout(p=0.0, inplace=False)
      (attn_drop): Dropout(p=0.0, inplace=False)
      (leaky_relu): LeakyReLU(negative_slope=0.2)
    )
    (2): GATConv(
      (fc): Linear(in_features=2048, out_features=160, bias=False)
      (feat_drop): Dropout(p=0.0, inplace=False)
      (attn_drop): Dropout(p=0.0, inplace=False)
      (leaky_relu): LeakyReLU(negative_slope=0.2)
    )
  )
  (predictor): Sequential(
    (0): Linear(in_features=160, out_features=80, bias=True)
    (1): LeakyReLU(negative_slope=0.2)
    (2): Linear(in_features=80, out_features=40, bias=True)
    (3): LeakyReLU(negative_slope=0.2)
    (4): Linear(in_features=40, out_features=1, bias=True)
  )
  (dropout): Dropout(p=0.2, inplace=False)
)
Epoch: 00 |  Iteration: 00000 | Loss: 0.6944 | Training Accuracy: 49.7070 | AUC Score: 0.4926
Epoch: 00 |  Iteration: 04000 | Loss: 0.6912 | Training Accuracy: 55.3711 | AUC Score: 0.5728
Epoch: 00 |  Iteration: 08000 | Loss: 0.6804 | Training Accuracy: 57.3242 | AUC Score: 0.6018
Epoch: 00 |  Iteration: 12000 | Loss: 0.6696 | Training Accuracy: 58.7891 | AUC Score: 0.6176
…
