…
      ndata_schemes={'protvec': Scheme(shape=(300,), dtype=torch.float32), 'biovec': Scheme(shape=(1024,), dtype=torch.float32), 'alphafold': Scheme(shape=(384,), dtype=torch.float32), 'esm': Scheme(shape=(1280,), dtype=torch.float32), 'concatenated': Scheme(shape=(2304,), dtype=torch.float32)}
      edata_schemes={'weight': Scheme(shape=(), dtype=torch.float32)})
Graph and protein mapping loaded successfully!
Number of nodes in graph: 21435
Data Loading is completed
Total Number of Edges:  10275677
Train Number of Edges:  7192975
Valid Number of Edges:  2055135
Test Number of Edges:  1027567
Graph Splitting is completed
For Feature: concatenated ; flag 1.10a Sage Model
=================================
flag 1.10b Sage Model:
 SAGE(
  (layers): ModuleList(
    (0): SAGEConv(
      (feat_drop): Dropout(p=0.0, inplace=False)
      (fc_neigh): Linear(in_features=2304, out_features=160, bias=False)
      (fc_self): Linear(in_features=2304, out_features=160, bias=True)
    )
    (1): SAGEConv(
      (feat_drop): Dropout(p=0.0, inplace=False)
      (fc_neigh): Linear(in_features=160, out_features=160, bias=False)
      (fc_self): Linear(in_features=160, out_features=160, bias=True)
    )
    (2): SAGEConv(
      (feat_drop): Dropout(p=0.0, inplace=False)
      (fc_neigh): Linear(in_features=160, out_features=160, bias=False)
      (fc_self): Linear(in_features=160, out_features=160, bias=True)
    )
  )
  (predictor): Sequential(
    (0): Linear(in_features=160, out_features=160, bias=True)
    (1): ReLU()
    (2): Linear(in_features=160, out_features=160, bias=True)
    (3): ReLU()
    (4): Linear(in_features=160, out_features=1, bias=True)
  )
  (dropout): Dropout(p=0.2, inplace=False)
)
Epoch: 00 |  Iteration: 00000 | Loss: 0.6933 | Training Accuracy: 53.5156 | AUC Score: 0.5218
Epoch: 00 |  Iteration: 04000 | Loss: 0.5263 | Training Accuracy: 75.1953 | AUC Score: 0.8306
Epoch: 00 |  Iteration: 08000 | Loss: 0.5134 | Training Accuracy: 77.6367 | AUC Score: 0.8598
Epoch: 00 |  Iteration: 12000 | Loss: 0.5067 | Training Accuracy: 77.9297 | AUC Score: 0.8521
…
False Positive: 0.183123825502376
confusion_matrix: [[0.31687617 0.18312383]
 [0.13764017 0.36235983]]
J   = 0.35847200231225784
MCC = 0.35996445829061874
AUC = 0.7503700900427926
Accuracy using deepdrug method:  = 67.9236%
Precision = 0.6643
Recall = 0.7247
F1 Score = 0.6932
=== === === ===


Epoch: 19 | Final Performance: 00000 | Loss: 0.0000 | Testing Accuracy: 67.9236 | AUC Score: 0.7504


=================================
For Feature: concatenated ; flag 1.10d GIN Model
=================================
flag 1.10b gin Model:
 GIN(
  (layers): ModuleList(
    (0): GINConv(
      (apply_func): Sequential(
        (0): Linear(in_features=2304, out_features=128, bias=True)
        (1): ReLU()
        (2): Linear(in_features=128, out_features=160, bias=True)
      )
    )
    (1): GINConv(
      (apply_func): Sequential(
        (0): Linear(in_features=160, out_features=128, bias=True)
        (1): ReLU()
        (2): Linear(in_features=128, out_features=160, bias=True)
      )
    )
    (2): GINConv(
      (apply_func): Sequential(
        (0): Linear(in_features=160, out_features=128, bias=True)
        (1): ReLU()
        (2): Linear(in_features=128, out_features=160, bias=True)
      )
    )
    (3): GINConv(
      (apply_func): Sequential(
        (0): Linear(in_features=160, out_features=128, bias=True)
        (1): ReLU()
        (2): Linear(in_features=128, out_features=160, bias=True)
      )
    )
  )
  (predictor): Sequential(
    (0): Linear(in_features=160, out_features=80, bias=True)
    (1): ReLU()
    (2): Linear(in_features=80, out_features=1, bias=True)
  )
)
Epoch: 00 |  Iteration: 00000 | Loss: 0.6932 | Training Accuracy: 50.0000 | AUC Score: 0.4149
Epoch: 00 |  Iteration: 04000 | Loss: 0.6234 | Training Accuracy: 64.8438 | AUC Score: 0.6989
Epoch: 00 |  Iteration: 08000 | Loss: 0.6093 | Training Accuracy: 67.3828 | AUC Score: 0.7243
Epoch: 00 |  Iteration: 12000 | Loss: 0.5994 | Training Accuracy: 66.3086 | AUC Score: 0.7465
…
True Negative: 0.40845998363123764
False Positive: 0.09154001636876233
confusion_matrix: [[0.40845998 0.09154002]
 [0.33354078 0.16645922]]
J   = 0.14983840469769838
MCC = 0.17123075010951536
AUC = 0.5300322879202684
Accuracy using deepdrug method:  = 57.4919%
Precision = 0.6452
Recall = 0.3329
F1 Score = 0.4392
=== === === ===


Epoch: 19 | Final Performance: 00000 | Loss: 0.0000 | Testing Accuracy: 57.4919 | AUC Score: 0.5300


=================================
For Feature: concatenated ; flag 1.10b GAT Model
=================================
flag 1.10b gat Model:
 GAT(
  (layers): ModuleList(
    (0): GATConv(
      (fc): Linear(in_features=2304, out_features=4096, bias=False)
      (feat_drop): Dropout(p=0.0, inplace=False)
      (attn_drop): Dropout(p=0.0, inplace=False)
      (leaky_relu): LeakyReLU(negative_slope=0.2)
    )
    (1): GATConv(
      (fc): Linear(in_features=4096, out_features=2048, bias=False)
      (feat_drop): Dropout(p=0.0, inplace=False)
      (attn_drop): Dropout(p=0.0, inplace=False)
      (leaky_relu): LeakyReLU(negative_slope=0.2)
    )
    (2): GATConv(
      (fc): Linear(in_features=2048, out_features=160, bias=False)
      (feat_drop): Dropout(p=0.0, inplace=False)
      (attn_drop): Dropout(p=0.0, inplace=False)
      (leaky_relu): LeakyReLU(negative_slope=0.2)
    )
  )
  (predictor): Sequential(
    (0): Linear(in_features=160, out_features=80, bias=True)
    (1): LeakyReLU(negative_slope=0.2)
    (2): Linear(in_features=80, out_features=40, bias=True)
    (3): LeakyReLU(negative_slope=0.2)
    (4): Linear(in_features=40, out_features=1, bias=True)
  )
  (dropout): Dropout(p=0.2, inplace=False)
)
Epoch: 00 |  Iteration: 00000 | Loss: 0.6932 | Training Accuracy: 49.8047 | AUC Score: 0.4849
Epoch: 00 |  Iteration: 04000 | Loss: 0.5800 | Training Accuracy: 71.5820 | AUC Score: 0.7815
Epoch: 00 |  Iteration: 08000 | Loss: 0.5646 | Training Accuracy: 72.7539 | AUC Score: 0.7986
Epoch: 00 |  Iteration: 12000 | Loss: 0.5577 | Training Accuracy: 70.8008 | AUC Score: 0.7778
…
